models/model_custom.pth (torch, 751370 bytes, 14 tensors)

weight f4 [32, 3, 3, 3]
00000000: b99d af3d e6f3 1d3e 5304 95bd 4596 6a3d
00000010: bff1 18bd af37 a6bd a126 d6bd 2a62 573d
00000020: 5115 233e a702 a23d 2051 483e 8284 2dbe
00000030: bd2e 373e 49d5 d8bd fc98 2c3e d37e 863d
00000040: 7186 433b cf78 8c3c 2d72 31be c7d1 44be
00000050: ecfe 8c3d 2c3f 143e 999c a1bb 1e7d 30be
00000060: f0ba 48bc 3b78 9b3d 1e48 3a3d 28b9 043e
00000070: 42a6 c03d 3d3b 91bd aaaf aabd 7d63 a53d
00000080: 8cc3 0abe a641 3ebe 9f50 853b 291e 423d
00000090: 30d6 6bbe 16c1 cd3d 9264 413d 1afc a53d
000000a0: e5d2 84bd cb1a 2a3d 516c 95bd 9b2f 56bd
000000b0: 43a6 39be 63cf efbd c66f 0ebe 18d3 ccbd
000000c0: 9491 dbbd 79c6 93bd f781 8e3d a9be 50be
000000d0: a893 abbd 1480 123d a16e a2bd 17b1 9bbd
000000e0: 0cc9 25be 71c2 5cbc 5dc4 42bd ff3e 8bbb
000000f0: 9913 12be e2f6 dd3d 5f58 27be 9597 82bd
00000100: d54d 21be 32da dd3d 3a4c 9dbd 5b8e 8c3b
00000110: cf2b 0e3e 85fd 61bd 3176 1abe e811 6ebd
00000120: 37e5 a3bd 04b8 f4bd 9630 3e3d c3fc 273e
00000130: f2c5 3fbe 924b 4a3d 0cc6 0cbe 563f 8b3d
00000140: 49f1 403d 53e3 383e e2be e9bd 8857 453d
00000150: 64fe d0bd 541e 493d 9209 8d3d 6fe3 12be
00000160: 6fe5 80be ec7f 64bd de01 613e 82d9 da3d
00000170: 7f64 30bd ad71 f13c 6a2b 243e e3a8 df3d
00000180: b35d b9bd 2870 90be 73b9 72be cd74 3b3d
00000190: ac9b 1d3e e10a 12bd 0602 5a3e 7620 a8bd
000001a0: 94de c03d c78c 173d 7bc2 2cbd 7b73 e23b
000001b0: 182c 9b3d b732 26be 3c86 2b3d 6fc7 60be
000001c0: 95fc e03c 23ff 1fbe e050 d93d 3ffa af3c
000001d0: 8f61 98bd 874c 67bb cb07 56bd e8a1 4cbe
000001e0: 1ecf 703d b954 3bbe 19c6 1d3d 6313 84bd
000001f0: d17f 21be 3bf6 ecbd 552f 4d3b d576 1e3e
00000200: 9ac8 3abd 1e59 a9bb f6f5 2bbd f178 ba3d
00000210: af20 81bd 3d47 843d 51a3 1a3e 7c0e adbb
00000220: 29ad 1abe a946 cebd 4707 91bc 54ea 893d
00000230: 5029 f1bd 02f1 373e 25bf ca3d 05a7 22be
00000240: 24db 56bd a6eb 483d 51a2 5dbe 0f14 26be
00000250: b304 e33d cf08 85bc 4203 2f3d 9eaa e83d
00000260: ddc9 0dbe acde 0d3e ef5e 043e a4fd a93d
00000270: ebb5 273e af03 9dbc 9202 16be c22a 343e
00000280: c177 33be 5f12 1f3e 25cc f33d efb8 253e
00000290: 6d79 91bd aecd fcbd cdf3 e43d 0132 8cbd
000002a0: 6f02 8c3d 79b8 fb3c abf4 9a3d 1551 c5bd
000002b0: 1766 39bc 77c8 20be 12e3 9fbc d7bc 25be
000002c0: 910a 38be 142a cdbd bc81 e4bd 4f6c 7abd
000002d0: 848e 1abe 3b99 933d 20de e7bd 0f19 e1bd
000002e0: 1eda ef3d 093a 1cbe 4a56 27be 54ff 043e
000002f0: f7be 50bd 0d9c 0b3e 2089 b6bd 8292 5c3e
00000300: bab2 433e 24ce 813e 9a3a b33d 3743 57bd
00000310: 1015 74be 2819 60be 98cc 64bd 5121 4e3d
00000320: d7d0 12be 008c 0a3e 67af 803e e4c8 463e
00000330: 87ab b0be 074d e1bd 196d 4bbe 92ee d43d
00000340: d261 2c3e b9a0 41bd c1dd 6b3d 4c76 01bd
00000350: c190 713e b8ec 1fbe a0c9 42be 9fe6 2ebe
00000360: ce08 45be c1ed f9bd 566b 39be f592 54be
00000370: e2cb 2fbd 96c2 9dbd 1bab cb3d 8abc 26be
00000380: 7523 b73c e9b3 22be b3b0 8fbd 2d1c f83d
00000390: 7c86 603d be56 4e3d 4207 1abb 6f2e 813d
000003a0: a85b 263d 82b6 d4bd 31bd c73d 3b2b 9b3b
000003b0: c5b9 de3c 2b40 f3bc 6196 d1bd c97a f13d
000003c0: 77d8 4ebd c90b 72bb 35ec f6bd 0e6d 9a3a
000003d0: 8529 183e e080 8dbb c09d a43d 2a79 22bc
000003e0: 371c 05bd e834 913d 083a 0fbe aecf 32bd
000003f0: 505e b3bd c6f7 be3c 5e22 f5bd ae9d 6cbd
0.08575005 0.15425071 -0.072762154 0.057272214 -0.037339922 -0.081160896 -0.10456587 0.05258385
0.159261 0.07910662 0.19562197 -0.16945079 0.17888923 -0.10587556 0.16855234 0.065671586
0.0029834772 0.01714745 -0.17328711 -0.19220649 0.0688456 0.14477223 -0.004931998 -0.17235228
-0.012251601 0.075912915 0.045478933 0.12961257 0.09406711 -0.07091377 -0.083342865 0.080756165
-0.13551158 -0.1857973 0.0040684487 0.047392044 -0.23030925 0.10046594 0.047215052 0.08104725
-0.064855374 0.041529458 -0.0729605 -0.052291494 -0.1812983 -0.11709478 -0.13909826 -0.100012004
-0.10721126 -0.0721559 0.069583826 -0.20385231 -0.083777726 0.035766676 -0.07931257 -0.076021366
-0.16189975 -0.013474093 -0.047550548 -0.004249453 -0.14265288 0.10838105 -0.16342305 -0.06376568
-0.15752347 0.10832633 -0.07680555 0.004289431 0.13883899 -0.055173416 -0.15084149 -0.058122545
-0.08002704 -0.11949161 0.046433054 0.16405015 -0.18727854 0.049388476 -0.13747424 0.0679919
0.047105107 0.18055467 -0.11413361 0.04817918 -0.10204771 0.04910119 0.06886591 -0.14344572
-0.25175044 -0.05578606 0.21973369 0.106860176 -0.04306459 0.02947315 0.16032186 0.109208845
-0.09051075 -0.28210568 -0.23703556 0.045765687 0.15391415 -0.035654906 0.21289834 -0.082093164
0.094174534 0.03699949 -0.04217766 0.006910739 0.075767696 -0.16230284 0.041876063 -0.21951078
0.02746419 -0.1562467 0.10611129 0.021481631 -0.07440483 -0.0035293417 -0.052253526 -0.19983637
0.058791272 -0.18294038 0.038519 -0.0644901 -0.15771414 -0.11570402 0.003130873 0.15475018
-0.045601465 -0.0051680943 -0.041982614 0.09105099 -0.06305062 0.064589 0.15101363 -0.0052812677
-0.15105118 -0.10072071 -0.017703665 0.06734148 -0.11775458 0.17963031 0.09899739 -0.15884025
-0.052455083 0.049052857 -0.2164395 -0.16218589 0.11084881 -0.016239552 0.042727716 0.11360668
-0.13846536 0.13854474 0.1292684 0.08300331 0.1637799 -0.019166796 -0.14649418 0.17594436
-0.17526151 0.15534352 0.11904172 0.16183828 -0.07103238 -0.12343918 0.11179314 -0.06845475
0.06836402 0.030727612 0.07566198 -0.09634606 -0.011315844 -0.15701471 -0.019517455 -0.16185318
-0.17972781 -0.100177914 -0.11157557 -0.061138447 -0.15093428 0.07206961 -0.11321664 -0.10991108
0.117115244 -0.15256514 -0.1634151 0.12988025 -0.05096337 0.13633747 -0.08912873 0.21540263
0.19111148 0.25352585 0.08751412 -0.052554335 -0.2383616 -0.21884596 -0.05585918 0.05032474
-0.14337479 0.13529968 0.2513382 0.19412571 -0.34505865 -0.1100102 -0.19865836 0.10397066
0.1683419 -0.047272418 0.057584528 -0.031606957 0.23590375 -0.15617645 -0.19022226 -0.17080162
-0.1924164 -0.12203551 -0.18107352 -0.20759185 -0.042919047 -0.0770313 0.09944745 -0.1628286
0.022355774 -0.15888943 -0.070161246 0.12114749 0.054815754 0.050375693 -0.002350286 0.06307685
0.040614754 -0.10386373 0.09752882 0.004735378 0.027188191 -0.029693684 -0.102337606 0.117909975
-0.050499406 -0.0036933294 -0.12056772 0.0011781768 0.14859588 -0.0043183416 0.08037901 -0.009916583
-0.03249761 0.07090169 -0.13986981 -0.04365509 -0.08758223 0.023311507 -0.11969446 -0.057767563

bias f4 [32]
00000000: dbee 4abd a8d0 623d d8bb a63d 2443 8bbd
00000010: bcc9 28be 06fb e8bd dcd0 54bd 4cfa 4cbe
00000020: be8d 953d 0ba1 2fbe 2d34 fbbd fdfa 3bbc
00000030: bdc5 3d3e 893b 69bd 57ac 013e 0926 9d3b
00000040: 3d19 bf3d 0650 fe3d 9976 8d3a 4fff 823d
00000050: 0031 483d 38d9 54bd 17f6 3dbe 3779 40be
00000060: 173d fd3d 6dcf 823c 5a62 163e a65b 0a3e
00000070: 757c 333e 4d8d 443e 60e9 113e d5e7 6e3c
-0.049544197 0.05537477 0.08141297 -0.067999154 -0.16483206 -0.11376004 -0.051956996 -0.20017356
0.07302426 -0.17151277 -0.12265811 -0.0114734145 0.18532462 -0.056941543 0.12663399 0.004795794
0.09330986 0.12417607 0.0010792791 0.063963525 0.048874855 -0.05196497 -0.18550907 -0.1879624
0.123651676 0.015968049 0.14685956 0.13511524 0.17527945 0.19194527 0.14249182 0.01458164

weight f4 [32]
00000000: bf56 7d3f 9083 763f 8aa5 763f 1d3c 813f
00000010: b9dd 773f 3804 833f df83 7c3f 8704 a53f
00000020: da1a 7c3f dacf 7a3f 5b78 793f 4444 803f
00000030: 1071 833f 1d8d 783f 3ef6 813f 9344 773f
00000040: 69ce 773f 8f28 7b3f 9389 803f 52a3 7c3f
00000050: 5fbf 7e3f 2c02 7a3f 47e0 7f3f 1f89 773f
00000060: 067a 7a3f 78be 7b3f 2e82 803f 0ce0 7b3f
00000070: d9cb 7e3f e885 763f f601 7c3f 3ccf 7d3f
0.9896049 0.962945 0.9634634 1.009647 0.96822697 1.0235662 0.9863872 1.2892007
0.9847847 0.97973406 0.9744927 1.0020833 1.0268879 0.9709032 1.0153272 0.9658901
0.9679933 0.9810876 1.0041984 0.9868671 0.9951076 0.97659564 0.99951595 0.96693605
0.97842443 0.9833751 1.0039728 0.98388743 0.99529797 0.96298075 0.9844049 0.9914434

bias f4 [32]
00000000: 93ec 9dbc 98d0 3d3d 5b2d 823d 0fef 96bb
00000010: afe3 beba 0013 203d 1e42 1b3d 3a38 0bbe
00000020: e713 8e3c 1780 a33d 0d77 5d3c 2ffc bb3d
00000030: 1fa2 073e e41c 0e3d 5985 b43d fd47 2abd
00000040: a46a 413c 8ff5 413d f468 2c3d 1778 373d
00000050: 0ed8 aeb9 75b9 0f3d 71d1 bdbc 8634 333c
00000060: 1e8d a43d bc55 543c 23b3 013d 9fd9 763b
00000070: f435 c93c 4255 773d 75da d13c 47de 403c
-0.019277846 0.04634151 0.06356307 -0.0046061347 -0.0014563705 0.03908062 0.03790485 -0.13595667
0.017343475 0.079834156 0.013517153 0.091789596 0.13245438 0.03469552 0.088144965 -0.04157256
0.01180521 0.047353324 0.04209228 0.04479226 -0.0003334884 0.035088975 -0.023171159 0.0109378155
0.080347285 0.012959894 0.03166498 0.0037666333 0.02456186 0.060384043 0.025616864 0.011771745

running_mean f4 [32]
00000000: 2858 283e 019d be3e 3a42 e53e fb4a 073e
00000010: 5dd7 683e 0a37 be3d f950 853e 11c1 183d
00000020: dd26 e73e da9c 2d3e 9039 6b3e db9f 4d3e
00000030: 3f08 473e 1741 9c3e 9bd3 b93e 122e d43e
00000040: ffcb 043f 6f1e 7a3e bb31 e53d 9836 2c3f
00000050: 38bd 273e 0a77 3e3e 617b d03e 553a b73d
00000060: 83fb 0d3e 4d5d ce3e 313c 033e 7b0b 093f
00000070: c2c5 7d3e 55a7 b93e 75da 2f3f e60e 043f
0.16439879 0.3722916 0.4477709 0.13212197 0.22738405 0.092878416 0.2603834 0.037293497
0.45146838 0.16954365 0.22971177 0.20080511 0.1943674 0.3051841 0.36294255 0.414414
0.51873773 0.24425672 0.11191126 0.67270803 0.16380775 0.18600097 0.4071913 0.08946673
0.13865475 0.40305558 0.1281593 0.5353314 0.2478247 0.36260477 0.68692714 0.51585233

running_var f4 [32]
00000000: f228 a23d 5c4a 8c3e 4110 983e 9466 3e3d
00000010: 87c4 d63d d1c0 c43c 97de 2b3e 6914 6d3d
00000020: 7191 8a3e 188d a53d 9a0a 063e 21c3 a43d
00000030: 3fc6 4f3d fb9a 4e3e 8efe 593d 8897 893e
00000040: 6285 063f 04a5 953d 2d71 2c3d d9c1 6d3f
00000050: 156c 8c3d 8177 a03d 2823 d03e 5089 063d
00000060: a75e 153d 1af7 463e 57c4 273d d5b7 eb3e
00000070: 9f91 2f3d d7ca 463e 7e91 863f 960f 1d3f
0.07917966 0.27400482 0.296999 0.046484545 0.10486703 0.024017723 0.1678413 0.057880793
0.27064088 0.08083552 0.13089982 0.080450304 0.05072617 0.20176308 0.053221278 0.26873422
0.52547276 0.07306865 0.04210012 0.92873913 0.068565525 0.078352936 0.40651822 0.032845795
0.03646722 0.194302 0.04095873 0.4603869 0.042863484 0.19413315 1.0513151 0.6135191

weight f4 [64, 32, 3, 3]
00000000: 76f4 f2bc eb5c a2bc 5aaa 95bc 56dd 28bd
00000010: 9917 0f3d 5158 46bd bf59 053d c8bd 2cbd
00000020: 733b 10bd ed5f 793c 49b7 5c3a 3ccf 4e3d
00000030: 1a22 0dbc 2dbe 073d 4ca7 dbbc b5f1 21bd
00000040: 8839 3d3a 04ab 6ebd e9bb b63c ee28 12bc
00000050: 3ca4 5e3d bc89 0fbc 6624 a83c b67d 813c
00000060: 5633 00bd d966 45bd 0633 46bd 3d6c a1bd
00000070: e6fe e8bc dac8 a1bd 5d96 2abd b404 c9bb
00000080: c3c8 3fbd 8cb2 c93c 2e18 2b3d 7949 e13c
00000090: 5afa 2cbd a0df 2dbc f610 0fbd c70a 433d
000000a0: edac 01bd db5a bc3b 57be 493d db42 3f3c
000000b0: a89b 053c 7f2b 6c3d e244 eabb 4c56 5d3c
000000c0: 1b3f 4d3d 577d 9b3d 38b4 80bd 3299 19bc
000000d0: a88b 8bbb 0212 67bd cde0 003d 64a4 a2bc
000000e0: 687f 5d3c 07b4 b5bc c637 2abd ea86 003c
000000f0: 9120 42bd c795 1fbd 71b7 143d b95e 4dbd
00000100: 166f 9bbd d52b 23bd f0b9 893c 99bb c43c
00000110: 2947 eabc 7bf1 703d 1101 903d cdc1 7ebc
00000120: a6b3 d0bb 762c 92bc 58a8 fb3b 365b 233d
00000130: 7901 87bc 88e4 38bd 3478 663d 7656 423d
00000140: 2c07 143d 9443 3d3d ad5f 713c d9e1 b83c
00000150: 2619 353d 7d6e 23bd 7dee 9abc 3167 e13c
00000160: df0f 233d 03a9 9a3c c22a 743d 634d e0bc
00000170: 39f6 f33c 03de 8dba 4579 da3c 3208 0cbd
00000180: f0d3 66bd fe35 1a3d 89a3 f4bb 58be 2f3d
00000190: ae43 f33c 6f82 88bc 51bb 9b3d 59cd e23c
000001a0: 3773 31bd 75a5 c1bc 5d66 4a3d f4de 78bd
000001b0: 951e 2e3c 8f0c 81bd 6dfb 8cbc b3fb a5ba
000001c0: de03 083d 920b 03bd 68b2 89bb 4377 0fbd
000001d0: 21d3 143c 08a0 433d 8d2c 36bd 39c0 2e3d
000001e0: e68f 2dbd f7c4 463c 16b5 973c 64ae 3e3d
000001f0: e01e 5fbc 0c7c 14bd 1b65 a0bd 8690 4abd
00000200: 084e 2fbb 131f 51bd 96a0 62bd 292b c6ba
00000210: dcd8 723d ce1c 783d a3fd 9fbc c536 7e3d
00000220: f3de f6bc e1c2 48bd 302a 353d b128 b1bc
00000230: 5bff 86bc 3080 c13c dde8 bcbc 8204 d43c
00000240: 7b2a 2a3d ccfd 4f3d 50c8 7abd f9ae 503d
00000250: 355d 2ebd a4d2 293c 0a8a 4d3d 093d 7cbb
00000260: 5028 28bd 2048 0a3d 6d7e 113c bb7e 19bd
00000270: 68a8 fdbc cc0c 23bd 0987 b3ba 14cf 033d
00000280: e6d2 c5bc 2e71 6cbd 47d3 193d ec80 833d
00000290: a0a9 5ebd 19c9 cc3c 6d7f f63b 30ed cdbc
000002a0: b044 dd3c d1f0 603c c623 9ebd 6dfb 873c
000002b0: 587b 043c bbf1 2cbd 898d 863d ace2 27bd
000002c0: 113f dfbb d500 a43c 27e2 5a3c e5c7 8cbd
000002d0: 4c9d 49bd fd99 58bb a3e7 a63b ca61 4d3a
000002e0: 7915 41bd 79ad d7bc c0db cb3c 1cb9 063d
000002f0: eaf7 0fbd 87d2 ad3b 9c0a 403d 8b43 043d
00000300: d49f 2e3d 855d 58bd ab0d 73bc 5c20 aa3c
00000310: ebc2 a43b f8ca 4abb 26b9 cd3c 3b70 9c3c
00000320: f908 053d d13a b1bc b73e 8e3d 476b 42bd
00000330: 6df6 393c 29f9 4a3d 0584 4a3c eb76 433d
00000340: eeaf 24bd 61b5 063d aaac ca3b 435b 39bd
00000350: ac42 3c3c 03bc b03c a4f5 103d eeba 173d
00000360: 1a7d 74bc 8a14 9dbc 4831 493d fe2b 1abd
00000370: d887 2dbd bcf9 00bd bb49 fe3b 7ad8 42bd
00000380: 9c3a 5b3c 9102 35bb cb70 fabc 79bb 1c3d
00000390: f671 70bd 8241 4c3d a324 e3bc 42b0 33bd
000003a0: 1ce3 07bc 0dac 873b 0d4d a0bd 7424 6fbd
000003b0: 48e8 22bd 464f b03c 8257 fc3c 33eb b7bd
000003c0: 267a 103a f575 833d a8f3 193d c27d 8c3c
000003d0: ac79 90bc 4988 aebc 5298 fcb8 a49f bbbc
000003e0: ff14 00bd 3182 7bbc d9c8 1c3d a817 af3c
000003f0: 581a db39 1183 533d a95f 843d d6f0 42bd
-0.029657584 -0.019819697 -0.018269707 -0.041226707 0.034934614 -0.04842407 0.03255629 -0.042173177
-0.035212945 0.015220624 0.00084196456 0.050490603 -0.0086140875 0.03314035 -0.026813172 -0.03953715
0.00072183507 -0.058268562 0.0223064 -0.008920891 0.054355845 -0.008760866 0.020525169 0.015807014
-0.031298958 -0.048193786 -0.048388503 -0.07881973 -0.028441858 -0.078996375 -0.041647304 -0.006134594
-0.04682232 0.02462127 0.041771106 0.027500855 -0.04223094 -0.010612398 -0.034928285 0.0476177
-0.031659056 0.0057481355 0.049253788 0.011673654 0.008154787 0.05765867 -0.0071493248 0.013509344
0.05010901 0.07592266 -0.06284374 -0.0093749035 -0.0042585917 -0.056413658 0.031464387 -0.019853778
0.013519146 -0.02218057 -0.041557096 0.007844666 -0.04739434 -0.0389612 0.036307756 -0.050139163
-0.07589547 -0.039836723 0.016812295 0.024015235 -0.028598385 0.058824044 0.070314534 -0.015549135
-0.006369072 -0.017843466 0.0076799802 0.039881907 -0.016480194 -0.04513982 0.05626698 0.047445737
0.036139652 0.046207026 0.014732284 0.02256863 0.044213437 -0.03990029 -0.018912548 0.027515026
0.039810058 0.01887942 0.05961109 -0.02738065 0.029780494 -0.0010823611 0.026669154 -0.034187503
-0.056354463 0.037649147 -0.007465784 0.042906135 0.029695358 -0.016663758 0.07604087 0.027685808
-0.043322768 -0.023638466 0.049414027 -0.0607595 0.0106274085 -0.063012235 -0.017209733 -0.0012663513
0.033206813 -0.031993456 -0.004202176 -0.035025846 0.00908354 0.04776004 -0.04447608 0.042663787
-0.04237356 0.012131921 0.018518966 0.04655303 -0.013618201 -0.036251113 -0.07831784 -0.049454235
-0.002674939 -0.051055025 -0.055328928 -0.0015119064 0.059288844 0.060574345 -0.019530123 0.06206395
-0.030135607 -0.049013976 0.044229686 -0.021625848 -0.016479185 0.023620695 -0.023060257 0.025881056
0.04154442 0.05077915 -0.06122619 0.050948117 -0.042569358 0.010365162 0.050180472 -0.0038488528
-0.04105407 0.03376019 0.00888024 -0.037474375 -0.030964091 -0.039807126 -0.001369686 0.032179907
-0.024148416 -0.057725124 0.037555005 0.06421074 -0.054360986 0.024998235 0.0075225146 -0.025137514
0.027010292 0.01372929 -0.07721667 0.016599381 0.008086048 -0.04222272 0.065699644 -0.040987656
-0.006812938 0.020019928 0.013359583 -0.06874064 -0.049222276 -0.0033050769 0.005093531 0.0007834701
-0.04713962 -0.026327835 0.024885058 0.032891378 -0.03514854 0.005304638 0.046885118 0.032290976
0.042632893 -0.052823562 -0.014834802 0.020767383 0.005028119 -0.0030943733 0.0251127 0.019096484
0.03247926 -0.021634491 0.06945556 -0.04746559 0.011350256 0.049554024 0.0123605775 0.04772083
-0.040206842 0.03288782 0.006185134 -0.04525305 0.011490505 0.021574026 0.03539051 0.037043504
-0.014922405 -0.019174833 0.049119264 -0.03763961 -0.04236588 -0.031488165 0.007760254 -0.04756973
0.013380673 -0.0027619938 -0.030571362 0.038264725 -0.05870243 0.04986716 -0.02772743 -0.043869264
-0.008293893 0.004140383 -0.07827196 -0.058384374 -0.039772302 0.021522176 0.030803446 -0.089804076
0.00055113656 0.06418983 0.037585884 0.01714981 -0.017636143 -0.02130522 -0.00012044668 -0.022903271
-0.031270023 -0.015350864 0.03827748 0.021373585 0.00041790563 0.051638667 0.06463558 -0.04759296

bias f4 [64]
00000000: 2f84 2d3d f7d2 3ebd cb5c 923c 508b 8dbd
00000010: a194 7dbd 707c 5ebc c9d4 04bd 4d77 b73c
00000020: 69e5 ce3c da7e 84bd 037b 94bc deb2 723b
00000030: 6467 253d db42 1bbe b646 543b df87 073d
00000040: c099 8cbb 9ea3 f2bc 8ace cc3c a475 223d
00000050: 8383 6e3c 8ce2 f0bc fd2d 4dbd 29df 41bd
00000060: 81d3 423b 63f0 36bd 5b44 26bd 2743 65bd
00000070: 264f 5ebd 8b06 acbd 12de 1ebd 68ba 91bc
00000080: 16da d13c 8fb8 5cbc 803b 0b3d 23ca 91bb
00000090: 4996 14bc 1b33 91bd 5bd3 3ebc 2e35 abbb
000000a0: 1017 14ba 683d 88bd 0160 333b 18bf 26bd
000000b0: c82a b3bd af2c 0d3d b816 adbd d0a3 b8bc
000000c0: 1f74 4cbd 24b0 8bbd 162d 75bd 9eb1 8b3c
000000d0: 32bf 8dbd f12d 833c 01dd eabd ca9a 223c
000000e0: d9a1 8bbd 4f21 2a3d 421c b8bd 197e 6abd
000000f0: 1d6b a0ba 3f8d f7bc 362a 823c 8e6d 39bd
0.04236239 -0.04658791 0.017866513 -0.069113374 -0.06190932 -0.013579473 -0.03242949 0.022395754
0.025255876 -0.064695075 -0.018125063 0.0037032883 0.040381804 -0.15162222 0.003239078 0.03308856
-0.0042907894 -0.029619034 0.02500083 0.039662972 0.014557722 -0.029404901 -0.050092686 -0.047331963
0.0029728117 -0.044662844 -0.040592533 -0.055972245 -0.0542747 -0.083996855 -0.038786 -0.01778908
0.025616687 -0.013471737 0.03399229 -0.0044491454 -0.009069034 -0.07089826 -0.011647071 -0.0052248454
-0.00056491885 -0.06652337 0.0027370455 -0.040709585 -0.08748394 0.03446644 -0.08451599 -0.02253905
-0.04991543 -0.068207055 -0.05985745 0.017052468 -0.06921233 0.016013118 -0.114679344 0.0099246
-0.06817979 0.04153567 -0.08989765 -0.057249162 -0.0012238953 -0.030218719 0.015889268 -0.045270495

weight f4 [64]
00000000: cd99 193f 63e4 333f fd67 bf3e 4c95 3d3f
00000010: 1eb2 f63e 4d56 283f ab10 c33e b73a f73e
00000020: 5448 f93e 5920 543f 78e7 233f 9a42 033f
00000030: 26e5 1e3f 6c22 5b3f e45a c93e 402f 423f
00000040: 85a4 373f 1a31 a63e 5402 563f 962e e43e
00000050: e47f 333f 5825 be3e dc47 1e3f 2708 343f
00000060: 7d07 c53e ccc3 c63e 8f9d f03e 4a24 1f3f
00000070: 4108 4e3f d409 f63e 5cd3 3d3f 7ccf 923e
00000080: 5aad c03e 2dac c13e e4ba bb3e cbbf da3e
00000090: c9dc 3a3f a3ef cf3e 512d b73e 216a e83e
000000a0: 7f5f 003f 7ec8 273f 8b0a 4e3f 4eef 3f3f
000000b0: 4ed9 663f 10ad 4a3f 4466 e93e 0e3c fc3e
000000c0: fd18 153f b9c4 243f 79fa d73e 4e68 4d3f
000000d0: b71c 1b3f 569c 2b3f 3684 e53e 2972 203f
000000e0: 4f2b 263f 7d5c 3a3f b319 523f 3e11 ea3e
000000f0: 4dcf 5e3f 3d46 303f 143a 553f 497a 2d3f
0.60000306 0.70270365 0.37384024 0.74055934 0.48182768 0.65756685 0.38098654 0.48286983
0.48687994 0.8286186 0.6402507 0.512735 0.620684 0.855994 0.39327157 0.7585335
0.7173541 0.32459337 0.835973 0.44566792 0.7011702 0.37137866 0.618284 0.7032494
0.38482276 0.38821256 0.46995208 0.6216475 0.80481344 0.48054373 0.74150634 0.28673923
0.37632257 0.37826672 0.36666024 0.4272445 0.7299314 0.40612516 0.3577676 0.4539347
0.50145715 0.655403 0.8048484 0.74974525 0.9017533 0.7917032 0.45585835 0.49264568
0.58241254 0.64362675 0.42183283 0.8023728 0.6059069 0.67035425 0.4482743 0.62674195
0.64909834 0.72797376 0.82070464 0.4571628 0.87035066 0.68857175 0.83291745 0.6776472

bias f4 [64]
00000000: ff10 afbd 843b b4bd 0f61 0ebd 95ef a7bd
00000010: fd89 0bbe fb0b eebd 8db0 ecbc 40d1 23be
00000020: c277 dfbd d1e3 23bd fb6a 73bd d0c2 04bd
00000030: 88a0 64bd e59c 8cbd f9a8 6f3c 76ca 72bd
00000040: cf24 e0bd eb3e 9abd 2f90 b7bd eff0 b9bd
00000050: 084d bdbd db5d 8e3c 8b95 1fbd 8735 56bd
00000060: 5eb1 3cbd 5d08 4bbb d1f1 fbbd 3a0e 833a
00000070: 1e80 a5bd 4f48 a9bd 1199 debc cbac bfbd
00000080: fa83 80bd 170a d03c 8a54 5dbc 43f6 c7bc
00000090: 524a a1bd 5c7f 40bd 438a 6fbd c8ef eabd
000000a0: 3262 8e3c 8970 d9bc d934 89bd 7b7e 57bd
000000b0: b25b 0dbd b108 39bd 2213 febd d645 9ebd
000000c0: 85f9 2fbd a9c9 86bd d8d1 5f3a 5865 a6bc
000000d0: 5d96 90bd 31ae 78bd 5d57 14be f529 cbbd
000000e0: 2530 86bd c65b 8cbd e4ad c5bd c0c5 e3bd
000000f0: 066a 63bd cfa3 58ba 0159 52bd 4880 8dbd
-0.085481636 -0.08800414 -0.03476053 -0.081999935 -0.13626857 -0.11623379 -0.02889278 -0.15997791
-0.10911514 -0.040012185 -0.059428196 -0.03241235 -0.055817157 -0.06865863 0.014627689 -0.059275113
-0.10944521 -0.07531532 -0.08963048 -0.090791576 -0.09243208 0.017378738 -0.038960975 -0.05229714
-0.046067588 -0.0030980327 -0.12301982 0.0009998747 -0.08081077 -0.08265745 -0.027172597 -0.093591295
-0.062751725 0.025395436 -0.013508925 -0.024409419 -0.078755036 -0.04699646 -0.058481466 -0.11471516
0.017380808 -0.026542919 -0.06699533 -0.052610856 -0.034511276 -0.045174304 -0.12405993 -0.07728164
-0.04296257 -0.06581432 0.0008538044 -0.020311996 -0.070599295 -0.060712997 -0.14486451 -0.09920112
-0.065521516 -0.06853442 -0.09652308 -0.11121702 -0.055521034 -0.00082641555 -0.051354412 -0.06909233

running_mean f4 [64]
00000000: ab38 423e d00c 203e 15f9 543f 5ea1 253e
00000010: bbb9 283e 5446 6f3e d047 9d3e 223e 8b3e
00000020: b3ab aa3e fb7c da3e f103 b93e 0a44 7f3f
00000030: c377 c83e aa1d 9b3d 3549 423f 8607 033f
00000040: 91be 1d3f 79ad c73c b4ce 633e 2bd9 953e
00000050: 47dc b63e 42d9 3c3f c17f 9f3e a891 0e3e
00000060: 47e4 2b3e 2882 c43e 6756 153e dc17 753e
00000070: 8867 513e 50c1 263e b29e f73d 5330 1b3e
00000080: 41d8 b93e d475 d93d f114 223f c54e 933d
00000090: 7fa0 393e 7f72 c73d 1e4b 643e 5b26 113e
000000a0: 1e7e 613f 6f8c ee3d e85b 553e 6c52 343e
000000b0: 574c 183e 411d 873e 1594 c43d a7ae 373e
000000c0: d4a5 dd3e 324d 073e 85d0 df3d e737 043e
000000d0: 3d57 983e 6e2c 933e 60ac 903d 04a3 033f
000000e0: 4b10 ca3e 4c56 5a3e 9278 333e 8beb 233e
000000f0: c10d 533e 6443 2f3e b90c 4a3e 1ab6 f03e
0.1896693 0.15629888 0.8319257 0.16174838 0.164771 0.23366672 0.3071885 0.2719584
0.3333412 0.42673478 0.3613582 0.99713194 0.3915387 0.07574017 0.75892955 0.51183355
0.61618906 0.02437471 0.2224682 0.2926725 0.35714933 0.7376901 0.31152156 0.13922751
0.167863 0.3838055 0.14583741 0.23934883 0.2044965 0.1628468 0.120908156 0.15155153
0.362978 0.10618177 0.63313204 0.071927585 0.1812763 0.09738635 0.2229428 0.14174788
0.88083065 0.11647879 0.2083584 0.17609566 0.14872871 0.26389506 0.09598557 0.17937718
0.4329058 0.13213041 0.10928444 0.1291195 0.29754058 0.28744835 0.07064128 0.5142062
0.39465556 0.21321982 0.17526463 0.16007821 0.20610715 0.17115551 0.19731416 0.47013932

running_var f4 [64]
00000000: c3c9 b73e 1849 ac3e c567 d63f 583d ac3e
00000010: c9a8 e93d 9b41 203f 2f9a ab3e 6a60 8c3e
00000020: 2102 973e 03ff eb3f 2d40 873f aca0 fb3f
00000030: 6eec 563f 8150 1c3e bac0 553f 79ae 903f
00000040: bd1b cc3f b7ef 423c 55dc 293f a4f1 753e
00000050: 837c 5a3f d036 ac3f 3ee9 873f a0c5 de3e
00000060: cffa 3a3e 2601 013f a566 043e 4152 f73e
00000070: f9fa 183f 7dbd f73d 2858 983e 0350 243e
00000080: 7822 923e e4ea 943d 5524 683f f801 803d
00000090: 85e8 e33e b585 943d 537c 823e 859b f73d
000000a0: 0978 1740 5b9d 353e 3bda 433f 6799 da3e
000000b0: 5158 0b3f ce7d 673f 593e 9e3d c0f7 eb3e
000000c0: 31fd d93f 3768 1d3f f637 c23d acaa 8c3e
000000d0: 0d35 a03f 117f 0d3f f9ca 263d f37e 933f
000000e0: b128 8f3f b417 0c3f 7385 bf3e 4c06 f13d
000000f0: a72a 233f 6061 aa3e 9657 bd3e 0729 c53f
0.3589612 0.33649516 1.6750418 0.33640552 0.11409146 0.62600106 0.3351607 0.27417308
0.29493812 1.8437198 1.056646 1.9658408 0.83954513 0.15265085 0.834972 1.1303245
1.5945965 0.011897973 0.66351825 0.2401796 0.8534624 1.3454227 1.0618055 0.4351015
0.18259738 0.5039238 0.12929781 0.48304942 0.59757954 0.12096689 0.29754758 0.16046147
0.28541923 0.07271364 0.9068044 0.062503755 0.44513336 0.07252065 0.25485477 0.1209021
2.3667014 0.17735808 0.7650487 0.42695162 0.54431635 0.9042634 0.077267356 0.46087456
1.7030393 0.61487144 0.0948333 0.27473962 1.251619 0.5527201 0.040720914 1.1523117
1.1184293 0.5472367 0.374065 0.11768779 0.6373696 0.33277416 0.36980885 1.5403146

weight f4 [8, 20736]
00000000: faa6 403a c5c1 33bc 5f89 0a3d f844 ab3c
00000010: 1e75 24bd 2eda 5cbc 1789 e438 ca98 743b
00000020: e8df 72bc f0d3 e4bb a891 e7bb f01e 94bc
00000030: 429b 6fbb 9726 5b3d d307 db3b 7ecb 113b
00000040: c87c 91b9 dd95 773c e0b5 8e3c 4001 a0bc
00000050: 087b 203c 6e00 b63b 34b8 33bd a591 92bc
00000060: d42d ccbc 7b0e 173a f486 613c a8a2 10bc
00000070: 802d 4ebc cd4d 253c 34b1 cc3a 01db a53c
00000080: 6245 e3bb ef83 e83b 51c5 1bbc a29a 3a3b
00000090: 4e70 1abb db5b a2ba e77a 2abc 7463 70bb
000000a0: 0952 d0bb 1ab3 8dbb ec10 9d3b eaec f93b
000000b0: 91d5 92bc a9fa b83b 74bb 26bc 37ff bdba
000000c0: 8629 043d e722 37b9 09fe 083d ff43 38bc
000000d0: 7506 57bc eea2 9d3c 2e46 233d e996 cf3b
000000e0: 0f32 8fbc 5464 193c 3422 47bc df74 d43c
000000f0: da2a fbba 54fd 6db8 f1fd 203b d852 323c
00000100: 0e79 66bc da4b c63c 2872 553c 41ae 40bb
00000110: 87af 7c3c 37e2 a8bc cda2 073c 7e73 923b
00000120: bc6c b93c 7b05 6bbc 2c45 3d3c 21b0 fb3c
00000130: d33d 283c 1633 36bc 7374 39bc b8d1 f7bb
00000140: 36ae 093b 1a90 bbbb ab69 7e3c f579 8bbb
00000150: 13ce 0f3c 291c 80bc 98a8 093c 634f c2bc
00000160: 4f57 0bbc 3f73 e7ba 0b4c ddbc 08e7 09bc
00000170: f288 703c 921b 7f3c fb9b 563b 5641 1b3b
00000180: d852 ef3c e715 92bb 8266 643c fa14 cdbc
00000190: 9b76 1b3c c285 ab3a 2ef3 793b 833d 8dbb
000001a0: 4299 ad3c ee0f d6bb 1bf3 2b3c 65d7 0b3c
000001b0: fea6 963c bf20 a5bc 526b 09bb 4793 d53c
000001c0: 6c4c e33b d08c 343c 0433 92bc a73f 54bc
000001d0: 0e22 c3bc 43e0 e5bb 4f33 ccba 88cc 913c
000001e0: 24cb 77bc b245 7239 5d46 cdbb 8806 0bbc
000001f0: 7d52 a6bc 7c52 8d3c beaf b73b eab9 1abc
00000200: 7b95 293d 10c9 f93a 543f 16bd 28f4 503c
00000210: b766 b93c 41d5 863b 5d3c cdbb 5ea1 09bc
00000220: 8049 6c3c 7970 e43b fbfe ae3c ea49 d03c
00000230: 6309 163b 2906 ba3c ac55 ecbb 6367 a7bc
00000240: 9579 49bc a7c6 243c 597d 263b a3fd 08bd
00000250: 705d 99bc 929c 0cbd 0562 353c ec07 943c
00000260: 75e9 2f3c 873b 733c cc4f b33c c83a 103c
00000270: 5782 283d 6d15 653c 8172 573c 2075 533b
00000280: 99df 30bc 02e4 6b3c 4f44 08bd 071b cfba
00000290: 82f2 353c 873d 8c3c 5695 3f3b 3a44 98bc
000002a0: f388 8f3c f1f8 163c d39a 16bc c12f 3d3b
000002b0: 1730 7a3c 5404 ea3b 50fc 3d3c 7899 533b
000002c0: 0216 893c 252c 13bc 3c1f efba cbe3 ca3c
000002d0: a6d4 e4bc 178d 3ebc 0304 7bba 79b9 59bc
000002e0: 7003 9a3c f190 16bd 930b 67bc 7e96 3c3c
000002f0: 0942 95ba a4ad 4c3d 0396 283c 9a05 bf3c
00000300: e11c fdbc b7f5 073d 3353 4fbb 2c9b 0bbc
00000310: 951e 76bc 118a cd3c d144 abbc bc55 c8ba
00000320: 4cfb a5bb 5e04 6d3c e2d8 023d 4ec9 1e3d
00000330: 7497 fabb bd93 173c bfa6 0cbc 4f1f a23b
00000340: 6a4c 4cbc bdba 0cbd f779 89bc 8a34 7e3c
00000350: f258 0c3c 3a88 a6ba 7e13 c639 a390 90bc
00000360: 29c8 c9bc 646a 6fbb ce8b 96bc f0e8 63ba
00000370: d3f5 c4bb c142 613b a035 5e3c 7849 1f3c
00000380: fa22 4d3c 43a6 82ba 22d9 babc 65f8 afbb
00000390: 7225 76bb 8a0b 303a ffbb 00bc 3453 5ebd
000003a0: cc28 f7bb a5bf 7d3c 32d1 b2bc 8d61 233d
000003b0: 8790 0cbc 313a c7bc 069d 2c3c 5d3b 053a
000003c0: c84e 363a 4452 753c 0527 d63c fa86 53bc
000003d0: b52e 883b 1672 313c 9ff4 de3c 22a8 5ebc
000003e0: 86bc cfbc 4266 3ebc 364c 0f3d d0b8 343c
000003f0: c95d 6bbc 9691 3e3a 08c0 ecbb 93a0 c3bc
0.00073491 -0.010971491 0.033822414 0.02090691 -0.040150754 -0.0134797525 0.00010897422 0.0037322515
-0.014823891 -0.0069832727 -0.007066924 -0.018081158 -0.0036561047 0.0535036 0.0066842823 0.0022246535
-0.00027749524 0.015111414 0.01742071 -0.019531846 0.009794958 0.0055542504 -0.04387684 -0.017891714
-0.024924196 0.00057623506 0.0137650855 -0.008827843 -0.01258409 0.01008935 0.0015616775 0.02024603
-0.0069357613 0.007095806 -0.009507493 0.0028473516 -0.0023565474 -0.0012386994 -0.010405279 -0.0036680372
-0.0063574356 -0.004324329 0.004793277 0.0076271193 -0.017924102 0.0056451154 -0.010176528 -0.0014495616
0.032266162 -0.00017465242 0.03344539 -0.01124668 -0.013124098 0.01924273 0.03986185 0.0063351286
-0.017479924 0.009362299 -0.012154151 0.025934635 -0.0019162551 -5.6741133e-05 0.0024565423 0.010884009
-0.014066948 0.02420609 0.013027705 -0.0029400738 0.015422708 -0.02061568 0.008278561 0.004469334
0.022634856 -0.014344568 0.011552136 0.030723633 0.010268646 -0.011120578 -0.011319268 -0.007562842
0.0021008379 -0.0057239654 0.015528123 -0.004256482 0.008777159 -0.015638428 0.008402012 -0.023719495
-0.008504703 -0.0017658247 -0.0270138 -0.008416899 0.014681088 0.015570538 0.003274678 0.0023690066
0.029214308 -0.0044581774 0.013940455 -0.025034416 0.009488727 0.0013086128 0.003813933 -0.0043103113
0.021191243 -0.0065326607 0.010494973 0.008535241 0.018390175 -0.020157216 -0.002096851 0.026071204
0.0069366004 0.0110199 -0.017846592 -0.012954629 -0.02381995 -0.0070152595 -0.0015579256 0.017797723
-0.015124116 0.00023104882 -0.0062644915 -0.008485444 -0.020303005 0.017251246 0.005605667 -0.009443739
0.04140232 0.0019057114 -0.03668149 0.012753524 0.022631986 0.0041147773 -0.0062632994 -0.008400289
0.014421821 0.0069714156 0.021361819 0.02542587 0.0022893779 0.022708016 -0.0072123613 -0.02043504
-0.012297054 0.010057128 0.0025404303 -0.03344501 -0.018721312 -0.034329005 0.011070733 0.018070184
0.010736813 0.014845735 0.021888636 0.008803077 0.041139927 0.013982159 0.013149858 0.0032265857
-0.010795497 0.014397623 -0.03326827 -0.0015800901 0.011105182 0.017119182 0.0029233298 -0.01858722
0.017521357 0.009214626 -0.009192186 0.0028867575 0.015270255 0.0071416292 0.0115958005 0.003228752
0.016734127 -0.008982693 -0.0018243561 0.024766823 -0.02793343 -0.011630318 -0.0009575488 -0.013288849
0.018800467 -0.03675932 -0.014101881 0.0115104895 -0.0011387478 0.049970284 0.010289672 0.0233181
-0.03089756 0.033193316 -0.0031635284 -0.008520883 -0.01502194 0.02509025 -0.020906838 -0.001528434
-0.0050653573 0.014466373 0.031945117 0.038766198 -0.007647449 0.009251532 -0.008584677 0.00494758
-0.01246939 -0.034357775 -0.01678179 0.015515456 0.008566128 -0.0012705394 0.00037780026 -0.017647093
-0.024631577 -0.003653192 -0.018377211 -0.0008694073 -0.00601075 0.0034372064 0.01356259 0.009722106
0.012520546 -0.0009967763 -0.022808615 -0.005370187 -0.003755894 0.00067155866 -0.007857322 -0.054278567
-0.007542705 0.015487586 -0.021828268 0.039887954 -0.00857938 -0.02431974 0.010535484 0.0005082393
0.00069544883 0.014973227 0.026141653 -0.012910599 0.0041559585 0.010830423 0.027216254 -0.013589891
-0.02535845 -0.01162106 0.03498479 0.011030391 -0.014365622 0.0007269619 -0.0072250403 -0.023880279

bias f4 [8]
00000000: f4d1 db3c 2341 1dbd 5d75 1e3d 92ee 0cbd
00000010: 971c 4cbc 52f6 5b3d 7743 d3bc c138 9bbc
0.026833512 -0.038392197 0.038686145 -0.034407206 -0.012457988 0.053701706 -0.025789006 -0.01894796
