models/model_baseline.pth (torch, 400270 bytes, 6 tensors)

weight f4 [32, 3072]
-0.005976706 0.017690219 0.009358049 0.009748946 -0.00052665966 0.017017268 -0.014988304 0.010411408
0.007833624 0.0011005905 -0.013191168 0.0087579535 -0.00039392567 -0.013695717 0.0054469486 3.9474213e-05
-1.4397605e-06 -0.0047296234 0.010384882 0.0102694435 -0.00474244 -0.016426131 -0.00022565057 -0.004361386
-0.0003231956 0.0119682755 0.009424925 -0.0057464335 0.0004914139 -0.012619207 0.009046739 0.019366292
0.0010122142 0.0019702292 -0.0015974452 -0.006613747 -0.0070566703 -0.004570262 0.009786759 -0.011763832
-0.0031662746 0.00013632987 0.0073393867 -0.010422169 0.0027778281 0.012194016 -0.013495925 -0.01597862
0.00991304 0.007088058 0.013031773 0.016794432 -0.010509423 0.018623317 -0.014156765 -0.01177152
0.0032613382 -0.0020652178 -0.0019850214 0.008675583 -0.0015926333 0.009753803 -0.0042434465 -0.014029958
0.0051427386 -0.0014484387 0.00662364 0.013639981 0.0061082607 -0.015972484 0.008002593 -0.0060523697
0.00608777 0.022005381 -0.0036024489 -0.013592967 -0.016827274 0.011804282 0.014501752 -0.017889183
-0.0012481421 0.0034959572 0.013982875 0.020874515 0.009056605 -0.011177242 0.0107595 -0.0018374816
-0.012474296 -0.010967999 -0.01762887 -0.013054237 0.0043175644 0.0102155665 0.014557467 0.021726307
-0.014557305 0.008841093 0.0063167005 0.00613124 -0.016045412 -0.00052721566 0.016591351 -0.0009174317
-0.0034302077 0.004989448 0.023515128 -0.0141225085 -0.011696046 0.014805882 0.0064678965 -0.016379021
-0.010221811 -0.011688733 0.0038187413 -0.013284814 0.006271271 -0.0018222751 -0.016211964 -0.014182156
-0.0019205714 0.01439728 -0.019189455 -0.0010700597 0.01848593 -0.011400782 0.0059559937 -0.004526773
-0.020829326 -0.0029122916 -0.005784935 0.012418263 0.0032996126 -0.0011666621 -0.0099254055 -0.0071089426
0.0023239832 -0.007439136 -0.010648965 0.0035589044 -0.013746538 -0.0040000896 -0.019045135 0.01707235
0.0031407329 0.0176873 -0.009993992 -0.008496094 0.013679242 -6.048464e-05 -0.0109212035 0.015196716
-0.013490103 0.018045489 -0.0030876542 -0.005728978 0.0065367254 -0.011453527 0.011269063 -0.01133935
-0.009103055 0.011331701 -0.0078945095 -0.012134402 -0.009983981 -0.0045919446 0.012196731 0.005921646
0.0066738524 -0.007883794 0.01383759 -0.0013937502 0.011137466 0.002451905 -0.006698122 0.0035180105
0.011371173 -0.010989837 0.016899494 -0.0052614743 0.00734839 0.0116983615 0.013065783 0.009352731
-0.017720347 -0.007981687 0.005351505 0.007981232 0.011887337 -0.01704412 -0.010205253 0.010585955
0.0005038946 -0.0055220635 0.005025177 -0.018125473 0.008955018 0.016232364 -0.007308719 -0.00034087093
-0.014777774 -0.0065129152 0.0010018876 -0.0027659645 0.009701719 -0.0053588497 -0.017431347 -0.009199418
-0.0070244377 0.019155592 -0.010952235 -0.007067733 -0.0048133833 0.005054405 0.0021225864 0.0066751363
0.009292214 0.005049156 0.003936028 0.014956884 -0.015500116 0.012610289 -0.009859521 -0.00015646708
-0.0030328117 0.0010543357 -0.010006423 -0.011609186 -0.0058222045 -0.005467751 0.013652122 -0.01883665
-0.001660773 0.013523694 -0.014230568 -0.003370099 0.0024973778 -0.00015214954 -0.002439169 0.01616634
-0.0036879685 0.002748666 0.005422902 -0.0030025584 -0.004552282 0.014106388 -0.0075893365 -0.008870557
-0.0011521201 0.0054399376 -0.009655284 -0.0056533613 0.010862136 -0.015538615 0.016013071 -0.009356779
00000000: 3ed8 c3bb 14eb 903c 8152 193c 0bba 1f3c
00000010: 880f 0aba cc67 8b3c 8191 75bc 9c94 2a3c
00000020: 9a58 003c b041 903a c51f 58bc 857d 0f3c
00000030: cf87 ceb9 0064 60bc 517c b23b 1d91 2538
00000040: cb3d c1b5 f5fa 9abb 5a25 2a3c 2b41 283c
00000050: 7866 9bbb 1890 86bc 9d9c 6cb9 f5e9 8ebb
00000060: 9472 a9b9 9616 443c 006b 1a3c 944c bcbb
00000070: 3bd2 003a cac0 4ebc c638 143c 0fa6 9e3c
00000080: 46ac 843a f61e 013b 5e61 d1ba 22b8 d8bb
00000090: a43b e7bb 23c2 95bb a458 203c 16bd 40bc
000000a0: 4681 4fbb c5f3 0e39 3d7f f03b bfc1 2abc
000000b0: 390c 363b 69c9 473c 031e 5dbc 98e5 82bc
000000c0: 4e6a 223c f142 e83b 3883 553c 7a94 893c
000000d0: b72f 2cbc ed8f 983c c7f1 67bc 55dd 40bc
000000e0: 2dbc 553b 9b58 07bb 2217 02bb 0824 0e3c
000000f0: e8bf d0ba 6ace 1f3c 9c0c 8bbb e9dd 65bc
00000100: 6b84 a83b 8ad9 bdba 1f0b d93b 3a7a 5f3c
00000110: ce27 c83b bad8 82bc 4f1d 033c f552 c6bb
00000120: eb7b c73b a144 b43c 1017 6cbb 09b5 5ebc
00000130: 5ad9 89bc bf66 413c c298 6d3c 568c 92bc
00000140: b398 a3ba 6e1c 653b 6e18 653c 0801 ab3c
00000150: 2862 143c c020 37bc 9d48 303c a7d7 f0ba
00000160: fd60 4cbc 1fb3 33bc 6c6a 90bc 70e1 55bc
00000170: 5b7a 8d3b 315f 273c 7182 6e3c 5efb b13c
00000180: c381 6ebc 3bda 103c 53fc ce3b 92e8 c83b
00000190: ab71 83bc d834 0aba 96ea 873c cd7f 70ba
000001a0: 56cd 60bb 867e a33b cca2 c03c 1862 67bc
000001b0: c6a0 3fbc 5f94 723c a6f0 d33b 4c2d 86bc
000001c0: 6279 27bc 1982 3fbc d943 7a3b 8ca8 59bc
000001d0: 3c7f cd3b 68d9 eeba f4ce 84bc 465c 68bc
000001e0: afbb fbba 92e2 6b3c 3433 9dbc 3f41 8cba
000001f0: ce6f 973c 58ca 3abc 7f2a c33b 5355 94bb
00000200: 43a2 aabc 25dc 3ebb 8d8f bdbb f875 4b3c
00000210: 503e 583b afea 98ba 2b9e 22bc 22f2 e8bb
00000220: f84d 183b ffc3 f3bb ff78 2ebc 823c 693b
00000230: 2939 61bc 2f13 83bb 8b04 9cbc 50db 8b3c
00000240: c1d4 4d3b f5e4 903c d7bd 23bc 3333 0bbc
00000250: e61e 603c e3b0 7db8 d9ee 32bc a6fb 783c
00000260: 9805 5dbc 22d4 933c 3e5a 4abb 27ba bbbb
00000270: 0732 d63b 93a7 3bbc e0a1 383c aec8 39bc
00000280: fb24 15bc 99a8 393c f957 01bc 5fcf 46bc
00000290: da93 23bc 0678 96bb ccd4 473c 5e0a c23b
000002a0: 55b0 da3b 072b 01bc 0fb7 623c 7fae b6ba
000002b0: eb79 363c 24b0 203b eb7b dbbb 6c8e 663b
000002c0: 284e 3a3c b80e 34bc cf70 8a3c 7268 acbb
000002d0: c3ca f03b 7caa 3f3c de11 563c 323c 193c
000002e0: 432a 91bc 9fc5 02bc ad5b af3b b7c3 023c
000002f0: 1bc3 423c 1ca0 8bbc ef33 27bc b770 2d3c
00000300: cb17 043a 6df2 b4bb 3daa a43b df7b 94bc
00000310: 11b8 123c bcf9 843c fb7d efbb ecb6 b2b9
00000320: 7a1e 72bc 4b6a d5bb c551 833a 2f45 35bb
00000330: f5f3 1e3c 4a99 afbb 2fcc 8ebc 28b9 16bc
00000340: 412d e6bb 30ec 9c3c 0171 33bc 7198 e7bb
00000350: 96b9 9dbb 6c9f a53b 171b 0b3b 1abb da3b
00000360: 5f3e 183c 6473 a53b ccf9 803b b80d 753c
00000370: 33f4 7dbc 639b 4e3c d489 21bc 5011 24b9
00000380: 23c2 46bb a331 8a3a fbf1 23bc 7534 3ebc
00000390: 31c8 bebb d22a b3bb 26ad 5f3c 514f 9abc
000003a0: 4bae d9ba 7c92 5d3c 5427 69bc e1dc 5cbb
000003b0: 0cab 233b 558a 1fb9 77da 1fbb 466f 843c
000003c0: d8b1 71bb f722 343b 99b2 b13b 92c6 44bb
000003d0: 4f2b 95bb 7b1e 673c f8af f8bb d055 11bc
000003e0: bc02 97ba 8141 b23b 3231 1ebc d53f b9bb
000003f0: 1af7 313c ad95 7ebc d82d 833c 2d4d 19bc

bias f4 [32]
-0.01522121 0.0011579912 0.0029491528 -0.00727846 0.018187055 0.03649345 0.0048669395 0.0021868164
0.0074065053 0.012631367 0.011324564 -0.0034009095 -0.005304642 -0.009047461 0.013531802 0.0026238824
-0.0127598755 0.015030138 -0.00072230125 -0.010302879 0.008114818 -0.0043102717 -0.0017604479 -0.005682462
0.008863704 0.013825363 -0.017267052 -0.023253059 0.013455777 0.013143285 0.00396027 0.009009405
00000000: 6262 79bc bdc7 973a 9346 413b 2680 eebb
00000010: 05fd 943c 287a 153d d97a 9f3b b150 0f3b
00000020: 45b2 f23b cbf3 4e3c aa8a 393c cbe1 5ebb
00000030: 90d2 adbb cd3b 14bc 7eb4 5d3c 71f5 2b3b
00000040: cc0e 51bc f840 763c d158 3dba 68cd 28bc
00000050: 03f4 043c 2e3d 8dbb d4be e6ba f233 babb
00000060: 1239 113c c683 623c a273 8dbc 337d bebc
00000070: 9f75 5c3c ef56 573c 27c5 813b 2f9c 133c

weight f4 [16, 32]
0.12956758 -0.024080304 0.03745913 -0.09647993 0.0825064 -0.18763205 -0.06418806 0.071685195
-0.03532662 0.038510468 0.07580447 -0.082936086 -0.12078967 -0.0246198 -0.1520762 0.011199292
-0.130164 0.13853087 0.1367965 -0.066895545 -0.03747381 -0.10595527 0.082935646 -0.118202806
-0.060975485 0.13307509 -0.17043068 -0.08407152 0.0066412613 0.022303948 -0.08629914 0.14076804
-0.13037588 0.03252387 0.07286013 0.045671634 -0.0609794 0.100648694 0.1606227 0.14485027
0.18717922 0.14141527 0.02870958 -0.04580206 0.11552222 -0.046768773 -0.073640704 0.13970858
0.1273462 0.16531959 -0.06420607 -0.105708055 -0.10582659 0.123322666 -0.062476113 -0.18195656
-0.14061294 -0.050318267 -0.19160219 -0.097331665 -0.049844366 0.1466363 0.081500985 0.014897493
-0.1517313 -0.16710117 -0.0904944 0.22224781 0.21777269 0.16153614 0.17583092 -0.04906094
0.0781699 0.0231369 -0.19433194 0.16219087 -0.05905176 0.16079536 0.20457305 -0.18005086
0.08732287 0.05789527 0.05132453 -0.056417443 0.06673995 -0.14343002 0.20232867 -0.12331597
-0.16774988 0.07833188 0.11435881 -0.05423682 -0.03422354 -0.018881511 -0.15621084 -0.12685405
0.20665976 0.076091394 0.15591274 0.12236902 -0.13495684 -0.050233617 -0.04954488 0.019909943
0.105485685 -0.09050431 -0.17113729 0.032690946 -0.11628898 0.18048643 -0.08643843 -0.080071285
0.14032613 0.163689 0.18978377 -0.14550053 0.1385101 0.0783122 -0.103604734 0.17089772
0.14369872 -0.030746995 0.08657153 -0.114737116 0.120081946 0.030872265 -0.12426097 -0.0030098138
-0.14491296 0.11024603 -0.17591266 0.069854245 -0.16972141 0.00838091 -0.17208119 0.18637976
-0.10473813 0.049463075 0.15070441 -0.043214377 -0.02009416 0.015785966 0.16224226 0.15081598
-0.11512143 0.14565681 0.12582172 0.15776865 0.030367129 0.008888714 -0.15710665 0.16766591
-0.1153248 0.08499372 0.009891748 0.12679574 -0.20430815 -0.072429374 -0.11871614 0.09658014
-0.014085658 0.16618015 -0.11750844 -0.08935676 0.095150895 0.004690935 -0.097206295 -0.1743862
-0.15352628 -0.15920901 0.18351513 0.1529696 -0.13274388 0.030823639 -0.08621318 -0.03367109
-0.025472827 -0.12140069 0.05309664 -0.07673225 -0.12964524 -0.053942386 0.17289428 0.07546456
0.026732635 -0.012605952 -0.16091453 0.053492874 -0.032485537 0.026692377 -0.17307137 -0.027586669
-0.1085723 -0.03224914 -0.17700668 0.22772971 -0.18590654 -0.13928421 -0.06206484 0.2402721
-0.16619031 0.03650719 0.03353927 0.06452171 -0.091621175 -0.047107287 0.104423314 -0.12245288
0.10558767 -0.051157158 0.11286449 0.17598897 0.077843316 0.087385856 -0.14532313 0.0474978
0.2107985 0.1815185 -0.14955504 0.27054328 -0.14496726 0.002607205 0.040675912 0.08594017
-0.17014328 0.09024002 0.0055730282 0.17146033 -0.21743657 0.06887765 0.08937455 0.1533606
0.037958194 -0.17842434 0.09225417 -0.1536719 -0.15977015 0.06063144 0.08384553 0.164319
0.0043560793 0.009307824 0.100162 0.06928575 -0.19078507 -0.00943547 0.06435079 0.18499602
0.040397402 -0.14689831 0.11600828 -0.06962711 0.075719476 0.094786435 0.16988598 -0.053524714
00000000: 5dad 043e 0f44 c5bc bf6e 193d 4597 c5bd
00000010: 1ef9 a83d 9e22 40be 0875 83bd b0cf 923d
00000020: a5b2 10bd 27bd 1d3d 603f 9b3d 65da a9bd
00000030: 9360 f7bd 76af c9bc ddb9 1bbe 3c7d 373c
00000040: b649 05be 09db 0d3e 6214 0c3e 8800 89bd
00000050: 237e 19bd 14ff d8bd 2ada a93d 5014 f2bd
00000060: 6ec1 79bd d644 083e 6185 2ebe b02d acbd
00000070: f09e d93b c5b6 b63c 9abd b0bd 7f25 103e
00000080: 4181 05be c037 053d b137 953d 2e12 3b3d
00000090: 89c5 79bd e720 ce3d 477a 243e a153 143e
000000a0: e9ab 3f3e 2acf 103e 5a30 eb3c f19a 3bbd
000000b0: ea96 ec3d 9d90 3fbd f0d0 96bd c40f 0f3e
000000c0: 0b67 023e 8a49 293e 797e 83bd 777d d8bd
000000d0: 9cbb d8bd 9890 fc3d f4e6 7fbd d252 3abe
000000e0: d7fc 0fbe 871a 4ebd 5d33 44be d355 c7bd
000000f0: 9b29 4cbd d427 163e fde9 a63d 9d14 743c
00000100: 735f 1bbe 921c 2bbe 2155 b9bd ee94 633e
00000110: ceff 5e3e bb69 253e 050d 343e 20f4 48bd
00000120: 8a17 a03d 9989 bd3c f4fe 46be 5d15 263e
00000130: 42e0 71bd 8aa7 243e 997b 513e 415f 38be
00000140: 55d6 b23d 9723 6d3d ac39 523d fa15 67bd
00000150: f4ae 883d 52df 12be 3f2f 4f3e 158d fcbd
00000160: a0c6 2bbe 776c a03d f434 ea3d 6e27 5ebd
00000170: fc2d 0cbd 66ad 9abc bcf5 1fbe 07e6 01be
00000180: 9e9e 533e ced5 9b3d 97a7 1f3e 9c9c fa3d
00000190: 2032 0abe c4c1 4dbd 92ef 4abd 2d1a a33c
000001a0: e108 d83d 535a b9bd 9d3e 2fbe f1e6 053d
000001b0: eb28 eebd 6fd1 383e a206 b1bd 6afc a3bd
000001c0: a7b1 0f3e 179e 273e ad56 423e 17fe 14be
000001d0: 97d5 0d3e 2662 a03d b82e d4bd d0ff 2e3e
000001e0: c225 133e 1fe1 fbbc 6a4c b13d 4bfb eabd
000001f0: 86ed f53d d5e7 fc3c 897c febd 4c40 45bb
00000200: 1064 14be acc8 e13d 7322 34be be0f 8f3d
00000210: 73cb 2dbe 1650 093c 0d36 30be 56da 3e3e
00000220: f280 d6bd cb99 4a3d 4252 1a3e 8f01 31bd
00000230: 829c a4bc 9251 813c d622 263e 816f 1a3e
00000240: c9c4 ebbd 0f27 153e 69d7 003e 1b8e 213e
00000250: 7cc4 f83c f8a1 113c 91e0 20be 9db0 2b3e
00000260: 692f ecbd 3011 ae3d 0011 223c bed6 013e
00000270: 2836 51be da55 94bd 7321 f3bd cfcb c53d
00000280: 88c7 66bc 212b 2a3e 44a8 f0bd ad00 b7bd
00000290: 79de c23d 6ab6 993b 1814 c7bd 4c92 32be
000002a0: fe35 1dbe b007 23be 64eb 3b3e 10a4 1c3e
000002b0: 03ee 07be db81 fc3c 8990 b0bd b2ea 09bd
000002c0: 64ac d0bc eda0 f8bd dd7b 593d cc25 9dbd
000002d0: b9c1 04be b1f2 5cbd 330b 313e 2a8d 9a3d
000002e0: 66fe da3c 3289 4ebc c7c6 24be 581b 5b3d
000002f0: 8e0f 05bd f9a9 da3c 9f39 31be 70fd e1bc
00000300: 275b debd ad17 04bd 3d41 35be fa31 693e
00000310: 495e 3ebe 85a0 0ebe b437 7ebd e409 763e
00000320: cb2d 2abe 9088 153d 7960 093d f523 843d
00000330: e2a3 bbbd 92f3 40bd e4db d53d 93c8 fabd
00000340: 593e d83d 2b8a 51bd 7f25 e73d 7436 343e
00000350: 516c 9f3d 5bf7 b23d 96cf 14be 0e8d 423d
00000360: 90db 573e fcdf 393e f524 19be a684 8a3e
00000370: 4c72 14be a4dd 2a3b c99b 263d 6601 b03d
00000380: 0a3a 2ebe c2cf b83d f39d b63b 4c93 2f3e
00000390: b1a7 5ebe ba0f 8d3d 010a b73d 900a 1d3e
000003a0: 0d7a 1b3d dfb4 36be c1ef bc3d 2b5c 1dbe
000003b0: c99a 23be ac58 783d 35b7 ab3d 3d43 283e
000003c0: 71bd 8e3b d87f 183c bc21 cd3d b0e5 8d3d
000003d0: 295d 43be 3b97 1abc 59ca 833d 996f 3d3e
000003e0: bf77 253d 836c 16be c095 ed3d a998 8ebd
000003f0: d012 9b3d 641f c23d 97f6 2d3e bb3c 5bbd

bias f4 [16]
-0.12331331 0.023922559 0.03570979 0.1460871 0.009480651 -0.07768401 -0.13552822 0.079992704
0.00344049 0.09329948 0.104874164 -0.091451004 0.0074772215 0.03256612 0.21307969 0.11519935
00000000: b08b fcbd 3ef9 c33c 6e44 123d db97 153e
00000010: bb54 1b3c cb18 9fbd e9c7 0abe 37d3 a33d
00000020: d879 613b cc13 bf3d 44c8 d63d aa4a bbbd
00000030: 7b03 f53b 0d64 053d 9031 5a3e a3ed eb3d

weight f4 [8, 16]
-0.20516208 -0.09141052 0.08033303 -0.22740804 -0.17379814 0.009613105 0.3101119 -0.055473685
0.2373625 -0.16129632 0.06088881 -0.07296133 0.037321445 -0.1657933 0.22287363 0.05117376
-0.23886894 -0.012105198 0.1118069 0.23369575 0.0708495 0.22965863 -0.15719372 -0.13497092
0.42982113 -0.3751178 0.0478645 -0.13429372 0.15638144 -0.17652124 -0.23113644 -0.09320757
-0.16378343 0.08438332 0.22126979 -0.15134922 0.029706473 -0.20502529 -0.15598664 0.1902692
-0.042993758 0.20685433 0.0115922475 -0.23470937 0.025325844 -0.22686313 -0.0052830037 0.21187061
0.2445104 -0.298581 -0.25123435 -0.18670158 0.3526224 -0.012770819 0.4045121 0.20855746
-0.32022443 0.11937971 0.074396245 0.056876455 -0.11988002 -0.25972787 -0.16175798 -0.4122716
-0.073638916 0.09109303 -0.23343502 0.3230843 -0.042364772 0.07212842 -0.10764963 0.13450597
0.18244791 0.012342449 -0.10955737 -0.1735711 0.045707766 0.024671558 0.18052289 -0.35231033
-0.19931507 0.019289289 0.07257769 -0.10283823 -0.23638181 -0.1343337 -0.34580424 0.06616859
0.00713422 0.3576399 -0.2019584 0.13841903 0.023822872 -0.22407304 0.543325 -0.23143585
-0.0071962867 0.21708912 0.046625808 0.14224032 -0.23997289 -0.02856734 -0.098473944 -0.087530605
0.13442469 -0.27677175 0.11231536 0.17982124 0.17286885 -0.2407648 -0.19220771 0.3337822
-0.22051273 -0.3062082 0.30941197 -0.06793021 -0.04503868 -0.07831218 -0.18817027 0.059113055
-0.08062163 0.24499822 -0.273361 0.16723786 -0.15870176 0.17259273 -0.3594582 0.15474251
00000000: 0216 52be 7035 bbbd a585 a43d a7dd 68be
00000010: 24f8 31be 4980 1d3c fdc6 9e3e 6038 63bd
00000020: 280f 733e dd2a 25be 8b66 793d c06c 95bd
00000030: 5fde 183d b8c5 29be fc38 643e 949b 513d
00000040: 0f9a 74be e154 46bc 04fb e43d f04d 6f3e
00000050: 8b19 913d a22b 6b3e 64f7 20be d135 0abe
00000060: 8411 dc3e 710f c0be 910d 443d 4b84 09be
00000070: 7522 203e fcc1 34be 08af 6cbe 9ce3 bebd
00000080: d8b6 27be 29d1 ac3d 8c94 623e 4afb 1abe
00000090: fd5a f33c 26f2 51be f6ba 1fbe eed5 423e
000000a0: 391a 30bd 9fd1 533e 69ed 3d3c a757 70be
000000b0: 2578 cf3c cf4e 68be 0c1d adbb 9cf4 583e
000000c0: ef60 7a3e 9cdf 98be caa1 80be b32e 3fbe
000000d0: ec8a b43e b23c 51bc 361c cf3e 1690 553e
000000e0: 75f4 a3be 597d f43d 0f5d 983d 49f7 683d
000000f0: a883 f5bd 0dfb 84be e2a3 25be 4315 d3be
00000100: 00d0 96bd fc8e ba3d 9709 6fbe 4e6b a53e
00000110: af86 2dbd 11b8 933d 6977 dcbd efbb 093e
00000120: a0d3 3a3e fc37 4a3c 9d5f e0bd 9fbc 31be
00000130: 1138 3b3d 021c ca3c feda 383e 0562 b4be
00000140: 4019 4cbe 9204 9e3c 9da3 943d da9c d2bd
00000150: 130e 72be c68e 09be 410d b1be 6683 873d
00000160: 2dc6 e93b 941c b73e 2fce 4ebe b8bd 0d3e
00000170: 2f28 c33c 6773 65be 5917 0b3f 85fd 6cbe
00000180: d4ce ebbb 9c4c 5e3e b4fa 3e3d 72a7 113e
00000190: 74bb 75be 0e06 eabc b5ac c9bd 3f43 b3bd
000001a0: a0a6 093e 07b5 8dbe 9805 e63d 0f23 383e
000001b0: 8804 313e 0c8b 76be 19d2 44be 80e5 aa3e
000001c0: 17ce 61be 52c7 9cbe 3f6b 9e3e fe1e 8bbd
000001d0: 7b7a 38bd 2362 a0bd b5af 40be 8820 723d
000001e0: f41c a5bd d0e0 7a3e f9f5 8bbe 6740 2b3e
000001f0: b782 22be 26bc 303e e80a b8be d274 1e3e

bias f4 [8]
-0.10182395 0.18679914 0.11902105 0.0445808 -0.029513419 -0.13058627 -0.07447278 -0.07665576
00000000: 1389 d0bd 4648 3f3e 4fc1 f33d 5b9a 363d
00000010: 20c6 f1bc 68b8 05be 2f85 98bd b2fd 9cbd
