models/model_CNN_Custom.pth (torch, 751450 bytes, 14 tensors)

weight f4 [32, 3, 3, 3]
0	0xbd32cf13	-0.043654513
1	0x3e393cb1	0.18089558
2	0xbd8f11c0	-0.069858074
3	0x3a395742	0.00070701924
4	0x3ba05033	0.004892373
5	0xbdc5db83	-0.09661009
6	0xbce34728	-0.02774389
7	0xbd980f08	-0.07424742
8	0xbc8b8259	-0.017029928
9	0xbd7b8fbc	-0.061416373
10	0x3dad1187	0.08450609
11	0x3c9e66a1	0.019336047
12	0xbe2574c1	-0.1615782
13	0xbd96ef32	-0.07369842
14	0xbe3a612b	-0.18201129
15	0x3dbf17d3	0.09330716
16	0xbdcd0266	-0.10010223
17	0xbc077387	-0.00826729
18	0xbd3239fb	-0.043512326
19	0x3ce11829	0.02747734
20	0xbdc3048f	-0.09522354
21	0xbd6bcf82	-0.05757094
22	0xbdb84a4e	-0.089985475
23	0xbc37f3a9	-0.011227527
24	0xbe22648b	-0.15858667
25	0x3dbb3dd4	0.09142652
26	0xbdcef329	-0.10104973
27	0xbe26d90c	-0.16293734
28	0xbe2be41c	-0.16786236
29	0xbdcaf541	-0.0991006
30	0x3d8d584c	0.06901607
31	0xbc32bad1	-0.010908798
32	0x3dc97a19	0.098377414
33	0x3db00502	0.08594705
34	0x3e1c5c1f	0.15269516
35	0xbd765a86	-0.060144924
36	0x3d142e20	0.0361768
37	0x3d5e9556	0.054341637
38	0xbd45904a	-0.048233308
39	0xbcbf0237	-0.023316486
40	0xbe357a35	-0.177224
41	0xbd7d1cd4	-0.06179507
42	0xbc8598d9	-0.016308235
43	0x3d353718	0.044241995
44	0xbe1cd3a8	-0.15315115
45	0xbb9eb98a	-0.0048438953
46	0x3e1f6343	0.15565209
47	0xbdb77ffe	-0.089599594
48	0x3d3b52f7	0.04573342
49	0xbd218617	-0.03943452
50	0xbd8f17dd	-0.069869734
51	0xbc15f1a4	-0.00915185
52	0x3d0c1f83	0.03420974
53	0xbddb15c0	-0.10697508
54	0x3e14ab46	0.1451846
55	0x3e1e8660	0.15480947
56	0x3e0e2f68	0.13885272
57	0x3d5cf630	0.05394572
58	0x3e314587	0.17311679
59	0x3e04b503	0.12959675
60	0xbe241e65	-0.1602722
61	0xbe6e8980	-0.2329464
62	0xbe672814	-0.22573882
63	0x3e4ccc9f	0.19999932
64	0x3d492ae7	0.04911318
65	0xbc750069	-0.014953711
66	0x3e038278	0.12842739
67	0x3cdd2d65	0.026999185
68	0x3e100f31	0.14068295
69	0xbe142ded	-0.14470644
70	0xbdc181ab	-0.0944856
71	0xbdd68f6e	-0.10476576
72	0xbcc1b1c3	-0.023644334
73	0x3db615d8	0.08890885
74	0xbe00bf57	-0.1257299
75	0x3e231835	0.15927203
76	0xba9a76ab	-0.0011784633
77	0x3e3a8ac1	0.18216993
78	0xbe63c51f	-0.22243164
79	0xbcb7a612	-0.022418056
80	0xbe89bdf6	-0.2690274
81	0x3e070ee2	0.13189271
82	0x3d6318ef	0.0554437
83	0xbd7f2607	-0.062292125
84	0xbddf613c	-0.10907218
85	0x3a1a405f	0.0005884226
86	0xbace12d9	-0.001572217
87	0xbdfc5764	-0.12321356
88	0x3dc52980	0.09627056
89	0xbdd1399a	-0.10216065
90	0xbd7d293d	-0.061806906
91	0xbdbc3311	-0.09189428
92	0xbda7cda6	-0.08193521
93	0x3d75d254	0.060015038
94	0xbce197b5	-0.02753816
95	0xbe3e8fba	-0.18609515
96	0xbde9afac	-0.1141046
97	0xbe336831	-0.17520215
98	0xbe35f8e7	-0.1777073
99	0xbdc4a004	-0.09600833
100	0xbdf5d993	-0.120043896
101	0xbe361e9a	-0.17785111
102	0x3d6f94ea	0.058491625
103	0xbe0379ae	-0.12839386
104	0x3d861160	0.06546283
105	0x3db29632	0.08720054
106	0x3ca2b534	0.019861795
107	0x3e275b9d	0.16343541
108	0x3dc47de3	0.095943235
109	0xbdce97f7	-0.10087579
110	0x3cd360c9	0.025802987
111	0xbe0fe3a1	-0.14051677
112	0xbe24b296	-0.1608375
113	0xbe630cc7	-0.22172843
114	0xbd789a63	-0.06069411
115	0x3e2ef04a	0.1708385
116	0xbe199625	-0.14998682
117	0x3ca9ace7	0.02071233
118	0x3d97f8ad	0.07420478
119	0xbd2fd9f0	-0.04293245
120	0x3e40f75b	0.18844359
121	0xbc4c4a78	-0.012468927
122	0x3e104879	0.14090146
123	0x3e2dc64f	0.1697018
124	0x3dfdbbc7	0.12389331
125	0x3cb7d081	0.02243829
126	0x3c6973cc	0.0142487995
127	0x3c4eb499	0.0126163
128	0xbda8b274	-0.08237162
129	0xbe4be994	-0.19913322
130	0xbe582a1f	-0.21109818
131	0x3d99d02d	0.075104095
132	0xbdb66365	-0.08905677
133	0xbc5c2b12	-0.013438003
134	0xbd606672	-0.0547852
135	0xbdea6e83	-0.1144686
136	0xbddba7e5	-0.10725383
137	0xbcc2c883	-0.023777252
138	0xbccf6f3b	-0.025321594
139	0xbd189738	-0.03725359
140	0xbd8430a1	-0.06454588
141	0x3db677d6	0.08909576
142	0x3d911ec4	0.07085946
143	0xbcc0670b	-0.023486635
144	0xbe212678	-0.15737331
145	0x3d2dbe72	0.04241795
146	0xbe23070e	-0.1592066
147	0x3d0581c8	0.032594472
148	0xbde2b8a0	-0.11070371
149	0x3dd30f68	0.10305673
150	0xbe453e84	-0.19262129
151	0xbdc4e261	-0.09613491
152	0xbd186f5c	-0.037215576
153	0x3e215a57	0.15757118
154	0xbdb73fd7	-0.08947723
155	0xbe0cfb29	-0.13767685
156	0x3dc25f39	0.094908185
157	0xbd9df889	-0.0771342
158	0x3dc08b3c	0.09401557
159	0xbde9165b	-0.11381217
160	0xbdcff885	-0.10154823
161	0xbd5cc74c	-0.053901
162	0xbdae710a	-0.08517654
163	0x3e12cec0	0.14336681
164	0x3d395fa5	0.04525723
165	0xbe2c56f2	-0.16830042
166	0xbc2c77df	-0.010526626
167	0xbd2702a2	-0.040773995
168	0xbd4ce6d0	-0.050024807
169	0xbddfb015	-0.10922257
170	0xbd99882b	-0.07496675
171	0x3de54a82	0.11195852
172	0xbe111d86	-0.14171419
173	0xbde1d101	-0.110261925
174	0xbcca0a4f	-0.024663119
175	0xbe4eb9a1	-0.20188
176	0xbd849379	-0.06473441
177	0xbe00848b	-0.12550561
178	0x3df535d0	0.119731545
179	0xbd9137b2	-0.07090701
180	0xbe15ab5f	-0.14616154
181	0x3b0b2558	0.0021231975
182	0x3e05d1a8	0.13068259
183	0x3dba266f	0.09089362
184	0x3d56a8c6	0.05240705
185	0xbd69347f	-0.05693483
186	0x3e1a3d3b	0.1506242
187	0xbddec4bb	-0.10877367
188	0x3e1810da	0.14850178
189	0x3dd5322f	0.104099624
190	0x3df55014	0.11978164
191	0xbe0e68ac	-0.13907117
192	0x3d8ed1ca	0.06973608
193	0x3c65259d	0.0139860185
194	0x3d8d42d8	0.06897515
195	0xbd703a44	-0.058649316
196	0x3d76d1e2	0.060258754
197	0x3d5b903b	0.053604346
198	0xbd188fb2	-0.037246414
199	0xbcb9441c	-0.022615485
200	0xbe3fc128	-0.18726027
201	0xbc5db021	-0.013530762
202	0x3e162000	0.14660645
203	0xbe41d781	-0.18929864
204	0xbd80548e	-0.062661275
205	0xbe66cff2	-0.22540262
206	0xbd488ff6	-0.048965417
207	0x3d8b5f44	0.0680528
208	0xbe3d4495	-0.18483193
209	0x3d6c5907	0.05770209
210	0xbda4933d	-0.08035896
211	0x3d831565	0.06400565
212	0xbd0d2901	-0.034462932
213	0xbe081015	-0.13287385
214	0x3d541a5b	0.051782947
215	0xbd31bfd4	-0.043395832
216	0x3e4b7f21	0.19872715
217	0xbdbc3cdf	-0.09191298
218	0xbb82f0e2	-0.0039960006
219	0xbdf2817f	-0.11841106
220	0xbe3599f0	-0.17734504
221	0xbda18b18	-0.07887858
222	0xbdeefbfb	-0.11669155
223	0xbd2946b4	-0.041327193
224	0x3cff6485	0.031175861
225	0x3cfb633e	0.03068697
226	0xbd24c6cd	-0.040228654
227	0xbe0cff0e	-0.1376917
228	0x3d904990	0.07045281
229	0xbc4854ec	-0.012227278
230	0xbd5556ec	-0.05208485
231	0x3dd20c83	0.10256293
232	0x3ddfecfa	0.109338716
233	0x3df39521	0.118936785
234	0x3dea2e7c	0.114346474
235	0xbdb24a92	-0.087056294
236	0xbd229ca3	-0.03970016
237	0xbd49d01f	-0.049270745
238	0xbe11a275	-0.14222129
239	0xbd8003c2	-0.06250717
240	0xbd5721e0	-0.05252254
241	0x3d3f7258	0.046739906
242	0x3e134e20	0.14385271
243	0xbdbbfc20	-0.091789484
244	0x3c9d699a	0.019215394
245	0xbc10dd41	-0.008841814
246	0xbd86aab2	-0.06575526
247	0x3d76a791	0.060218398
248	0x3e213425	0.15742548
249	0xbde6b81c	-0.11265585
250	0x3e4045e5	0.18776663
251	0xbe4d5678	-0.20052516
252	0xbe4a3f29	-0.19750656
253	0xbe30a3c0	-0.17249966
254	0xbb49bf36	-0.0030784137
255	0x3dd2c5e1	0.10291649

bias f4 [32]
0	0x3dd544e0	0.104135275
1	0xbe0d1b5a	-0.13779965
2	0xbdf62643	-0.120190166
3	0xbda0f88b	-0.07859906
4	0xbdc37c98	-0.09545249
5	0x3dea754b	0.11448153
6	0x3d50e2d8	0.050997585
7	0xbddaaf52	-0.10677971
8	0xbe3d73c5	-0.18501194
9	0x3e52da75	0.20591147
10	0x3cc38533	0.023867225
11	0xbe04e9c4	-0.129798
12	0x3d613947	0.054986265
13	0x3d94f1d4	0.072726876
14	0xbc3f3526	-0.011670386
15	0x3db120e9	0.08648855
16	0x3e45626c	0.19275826
17	0x3e2ea627	0.1705557
18	0x3dab0cae	0.08352028
19	0x3d638014	0.055542067
20	0xbd2ed9e5	-0.04268827
21	0x3e46ccbb	0.19414036
22	0x3db759a1	0.08952642
23	0xbee6accf	-0.45053717
24	0xbe4026fc	-0.18764871
25	0xbdf0915c	-0.11746475
26	0xbe49d6b2	-0.19710806
27	0xbc9c109c	-0.019050889
28	0xbe545088	-0.20733845
29	0x3e02baa5	0.12766512
30	0xbd64b1d4	-0.055833653
31	0xbe1436d3	-0.14474039

weight f4 [32]
0	0x3f76be94	0.9638455
1	0x3f7cf810	0.98816013
2	0x3f93083d	1.1486889
3	0x3f7dbe4b	0.9911849
4	0x3f7ea125	0.9946464
5	0x3f7aada5	0.9792121
6	0x3f797e20	0.97458076
7	0x3f78cf63	0.97191447
8	0x3f7e7866	0.99402463
9	0x3f7f33e0	0.9968853
10	0x3f7caf21	0.98704726
11	0x3f782a04	0.9693911
12	0x3f7cf203	0.9880678
13	0x3f760363	0.9609892
14	0x3f7f313c	0.996845
15	0x3f7dbdbe	0.9911765
16	0x3f8ff34c	1.1246123
17	0x3f7d57c6	0.98962057
18	0x3f7def48	0.9919324
19	0x3f7bc147	0.9834179
20	0x3f77a56d	0.96736795
21	0x3f7dc90f	0.99134916
22	0x3f78aaca	0.97135603
23	0x3f94c01b	1.1621126
24	0x3f75a38d	0.95952684
25	0x3f7a562e	0.9778775
26	0x3f78c791	0.97179514
27	0x3f7b8c70	0.98261166
28	0x3f7c6ee4	0.98606706
29	0x3f7b6639	0.98202854
30	0x3f7d4823	0.98938197
31	0x3f7a318d	0.9773186

bias f4 [32]
0	0x3bd14a0b	0.0063870004
1	0x3d18c4e4	0.037297145
2	0xbde5f8c1	-0.11229087
3	0xbd1c0adb	-0.03809629
4	0x3d992625	0.074779786
5	0xbcfc72ac	-0.030816399
6	0x3bf6cdf6	0.0075318767
7	0x3cc696ca	0.024241824
8	0x3dd11e9f	0.10210919
9	0x3d2dcdfe	0.042432778
10	0x3c1f99a4	0.009741221
11	0x3c3cb11c	0.011516836
12	0x3cb312d3	0.021859562
13	0x3cb1ffe2	0.02172846
14	0x3d8d0e21	0.068874605
15	0x3d18f56c	0.037343428
16	0x3e075cc8	0.13218987
17	0x3cef4587	0.029207958
18	0xbb184a2e	-0.0023237574
19	0x3d8c5f98	0.068541706
20	0xbc91cc28	-0.017797545
21	0x3d8ebd8f	0.06969749
22	0x3c3b4b61	0.011431546
23	0xbe2641d1	-0.16236044
24	0x3b4be3ea	0.003111119
25	0xbc81ccaf	-0.015844671
26	0x3c696d40	0.014247239
27	0xbc4633fd	-0.012097356
28	0x3d1da825	0.038490433
29	0x3abfb247	0.0014625274
30	0x3c3572b2	0.011074709
31	0x3d423d3f	0.04742169

running_mean f4 [32]
0	0x3ec32984	0.3811761
1	0x3e0aacce	0.13542482
2	0x3d3091dc	0.043107852
3	0x3eb991e4	0.36244118
4	0x3e01e10d	0.12683506
5	0x3ee27c6c	0.4423555
6	0x3ea0a55a	0.31376153
7	0x3dfdbe0c	0.12389764
8	0x3da62a61	0.08113552
9	0x3ea4dd99	0.32200316
10	0x3f16c53a	0.58894694
11	0x3ddf00aa	0.108887985
12	0x3ed0425e	0.40675634
13	0x3f58c600	0.84677124
14	0x3dedb562	0.11606862
15	0x3e91c6a4	0.28471863
16	0x3e7fc0bc	0.24975866
17	0x3e5f7c0e	0.21824667
18	0x3ea6d16d	0.32581654
19	0x3e3c2757	0.18374382
20	0x3ea995c1	0.33122066
21	0x3ecb4796	0.39703053
22	0x3e71e41f	0.23622178
23	0x3c1052c9	0.0088088
24	0x3d9c2435	0.076240934
25	0x3f037c2f	0.51361364
26	0x3e332a33	0.17496566
27	0x3ea1c293	0.3159376
28	0x3e98ae79	0.29820612
29	0x3ebd6e4e	0.36998218
30	0x3e3636dc	0.17794365
31	0x3e3969e8	0.18106806

running_var f4 [32]
0	0x3e7a8994	0.24466544
1	0x3d3d4d04	0.046216026
2	0x3d57fc80	0.052731037
3	0x3e86afaa	0.26305896
4	0x3d20fd1c	0.039303884
5	0x3e9b2459	0.3030117
6	0x3dfca7e2	0.123367086
7	0x3d412a5e	0.047159545
8	0x3c9ac36e	0.018892016
9	0x3d2d3a60	0.042292
10	0x3f5d5c73	0.8646919
11	0x3cd32b3e	0.025777455
12	0x3e420a85	0.18949325
13	0x3fa25cfe	1.2684629
14	0x3d1c96dd	0.038229812
15	0x3d9f7a92	0.0778705
16	0x3df31229	0.11868698
17	0x3d98c517	0.07459467
18	0x3e266268	0.16248477
19	0x3d6ab048	0.05729702
20	0x3e5917a8	0.2120043
21	0x3d588ddf	0.052869674
22	0x3ddf893d	0.10914848
23	0x3c6d7fa8	0.014495768
24	0x3c88b756	0.016688984
25	0x3f30c167	0.6904511
26	0x3dc68b12	0.09694494
27	0x3e7b3e5b	0.24535505
28	0x3e67834a	0.22608677
29	0x3e7ebeeb	0.24877517
30	0x3da23a99	0.07921333
31	0x3dc1754b	0.094462

weight f4 [64, 32, 3, 3]
0	0xbd154beb	-0.036449354
1	0x3d1f9401	0.038959507
2	0x3d2b2e35	0.041792113
3	0xbce26256	-0.02763478
4	0x3d6d0e72	0.057875104
5	0xbcd940a5	-0.026520083
6	0xbcafa0a5	-0.021438906
7	0xbc5bf00d	-0.013423932
8	0xbcefaf2b	-0.029258331
9	0x3c20eb5c	0.009821739
10	0xbc93eeb9	-0.018058168
11	0xbd69035a	-0.056887962
12	0x3cf62e4f	0.030051379
13	0xbc8d01c1	-0.01721275
14	0xbc79668e	-0.015222205
15	0x3ceff674	0.029292323
16	0xbcaaa142	-0.020828847
17	0x3d0e203d	0.034698714
18	0xbcd256af	-0.0256761
19	0x3c6327af	0.013864442
20	0x3d16ce9c	0.03681813
21	0xbb8a4fba	-0.00422093
22	0x3d047deb	0.032346647
23	0xbd41fcd3	-0.047360253
24	0xbd60c4f8	-0.054875344
25	0xbbe1ffd1	-0.006896951
26	0xbc77c308	-0.015122183
27	0x3d857bf1	0.065177806
28	0x3af7de82	0.0018910917
29	0x3c67cb50	0.014147595
30	0x3c379940	0.011205971
31	0x3cb9eb93	0.022695338
32	0x3d284419	0.041080568
33	0x3d8d85cd	0.06910286
34	0x3b05a1c7	0.0020390616
35	0xbca00bf7	-0.019536955
36	0xbd8b6516	-0.0680639
37	0xbd835236	-0.06412165
38	0xbd3858b9	-0.045006488
39	0xbc4a1efb	-0.012336488
40	0xbd2a1a47	-0.041528966
41	0xbcd5433f	-0.026033042
42	0xbd7ee969	-0.062234316
43	0xbd0f5a5e	-0.03499829
44	0x3bd73cb5	0.006568516
45	0xbc94f20a	-0.01818182
46	0x3ce50c7a	0.02796005
47	0x3d35f12b	0.04441945
48	0x3d4b6815	0.049659807
49	0xbc890faf	-0.016731111
50	0x3bf3f991	0.007445522
51	0xbd45b66e	-0.04826968
52	0x3d428e03	0.047498714
53	0x3b2a523a	0.0025988952
54	0xbd6e7be2	-0.058223613
55	0x3d4c746c	0.049915716
56	0xbcf84a30	-0.030308813
57	0xbd6fa480	-0.05850649
58	0x3ca6ee61	0.02037734
59	0xbd332527	-0.043736603
60	0xbd6820cd	-0.056671906
61	0xba00f0f7	-0.0004918719
62	0xbc6c372e	-0.014417453
63	0xbd2e7181	-0.042588715
64	0xbc751294	-0.014958043
65	0xbd4157e5	-0.047202963
66	0x3d5c503c	0.053787455
67	0x3be9eed9	0.0071390686
68	0xbd52aa15	-0.051431734
69	0x3acfeb07	0.001586289
70	0x3d6bbf94	0.05755575
71	0x3d2b5821	0.041832093
72	0x3a069853	0.00051343924
73	0xbdd08265	-0.10181121
74	0xbc8f0e4f	-0.017462878
75	0xbdb497a1	-0.088179834
76	0xbd6c8bb2	-0.05775041
77	0xbb7033a9	-0.0036651886
78	0xbc34594c	-0.011007618
79	0xbd8a8b5a	-0.067648605
80	0xbcd840a4	-0.02639801
81	0xbd8e95d0	-0.06962168
82	0x3d025523	0.031819474
83	0x3cb00b1e	0.021489676
84	0xbc97f6ae	-0.018550243
85	0x3cf55bf7	0.029951079
86	0xbd0fab16	-0.03507527
87	0xbd17dfce	-0.03707867
88	0xbd404489	-0.04694036
89	0xbdaa6467	-0.083199315
90	0xbd4ad0aa	-0.049515404
91	0xbd473801	-0.048637394
92	0xbd2394da	-0.039936878
93	0x3d295c8d	0.04134803
94	0xbc52905d	-0.012851802
95	0xbc23cbb2	-0.009997295
96	0xbcac460b	-0.021029493
97	0xbc43bbbc	-0.011946615
98	0xbcf6169a	-0.030040074
99	0xbd866eb9	-0.065640874
100	0xbd0872a9	-0.033312473
101	0x3d0e63c6	0.03476312
102	0x3d101d46	0.035184167
103	0x3c6cceeb	0.01445363
104	0xbcf4f32e	-0.029901113
105	0xbcd5be8f	-0.026091842
106	0xbd0c2558	-0.0342153
107	0xbd51ff0f	-0.051268633
108	0xbc745e90	-0.014915124
109	0xbbd965ae	-0.0066344356
110	0xbcd2f9a3	-0.025753802
111	0xbd7ad066	-0.0612339
112	0xbcca8332	-0.024720762
113	0x3cea9b5c	0.028638534
114	0xbcc069c6	-0.023487937
115	0x3d637112	0.055527754
116	0xbd1fd6e2	-0.039023288
117	0x3d047eb7	0.032347407
118	0xb9618a35	-0.00021509158
119	0xbd01c629	-0.03168312
120	0x3d41f468	0.047352225
121	0xbcd86823	-0.026416844
122	0xbc6ef832	-0.014585542
123	0xbce142e4	-0.027497716
124	0xbb26d2d3	-0.002545525
125	0x3d15482d	0.036445785
126	0xbd7e2cac	-0.06205432
127	0xbc33867d	-0.0109573575
128	0x3c53dafd	0.012930629
129	0xbccc9a62	-0.02497596
130	0xbd3e5c98	-0.046475023
131	0xbbd0620f	-0.0063593457
132	0x3ca80485	0.020509968
133	0xbcebd32f	-0.028787224
134	0x3c3c74c7	0.011502451
135	0xbc98fcf3	-0.018675303
136	0xbd630db4	-0.05543299
137	0xbc9b3ca5	-0.018949816
138	0xbcdbc904	-0.02682925
139	0x3d31908b	0.043350738
140	0x3bafaeca	0.0053614127
141	0xbbb5e437	-0.005550887
142	0x3ca7e988	0.020497099
143	0xbcf9605b	-0.030441454
144	0x3c2eb4ed	0.010663253
145	0xbd4f2b07	-0.050578143
146	0xbd8988b0	-0.06715524
147	0xba1c5bdb	-0.0005964615
148	0xbca62b7c	-0.020284407
149	0xbd804836	-0.06263773
150	0x3c70e3ee	0.01470278
151	0xbca05941	-0.01957381
152	0xbc0fec9a	-0.008784438
153	0xbd162a6d	-0.036661554
154	0x3caa4890	0.020786554
155	0xbcd3a1b3	-0.02583394
156	0x3bab4878	0.005227145
157	0xbced4107	-0.028961672
158	0x3d0efb3e	0.034907572
159	0x3cfc3b09	0.030789869
160	0x3cb5d0f6	0.022194367
161	0xbd252e7a	-0.040327527
162	0xbd204fac	-0.03913848
163	0x3bf2b447	0.0074067446
164	0xbbdcef26	-0.006742376
165	0xbc971157	-0.018440885
166	0x3c0c0ed4	0.008548457
167	0x3d07e534	0.03317757
168	0x3c7cd167	0.015430785
169	0x3d8e7c85	0.06957344
170	0x3d36398b	0.04448847
171	0xbd07bf73	-0.033141565
172	0x3d0bc663	0.034124743
173	0x3c8a8f31	0.016913982
174	0x3cfa4318	0.03054957
175	0xbd34d9e7	-0.04415312
176	0xbc85dd78	-0.016340956
177	0xbcf18cbb	-0.02948605
178	0x3ccde98d	0.02513578
179	0xbd00e7bb	-0.031470995
180	0x3ca7a7c5	0.020465741
181	0x3d57cba0	0.052684426
182	0xbc94c391	-0.01815966
183	0x3d51f92b	0.051263016
184	0x3cd61b16	0.026135962
185	0x3d20b7cc	0.039237782
186	0xbd2a470e	-0.04157167
187	0xbd2bd392	-0.041949816
188	0x3d31ee7e	0.043440334
189	0xbd86a67c	-0.06574723
190	0xbd5c990e	-0.0538569
191	0xbd153f70	-0.03643745
192	0xbca1d6b8	-0.019755706
193	0xbd653148	-0.0559552
194	0xbd682a9f	-0.05668127
195	0xbd8a22a5	-0.06744889
196	0xbd216594	-0.039403513
197	0x3cb8494b	0.022495886
198	0xbd1f2fb2	-0.038863845
199	0xbd157315	-0.036486704
200	0x3d47712d	0.048691917
201	0x3c919e96	0.017775815
202	0x3d7a79bc	0.06115125
203	0x3d2f5b67	0.042811777
204	0x3cb55574	0.022135474
205	0x3d10fb73	0.03539605
206	0x3c8c486d	0.017124379
207	0xbc98aa3b	-0.01863586
208	0xbd3b6b9a	-0.045756914
209	0x3c151b8b	0.009100805
210	0xbd7964c8	-0.060887128
211	0xbbebe4cb	-0.007198905
212	0x3d14fcf3	0.036374044
213	0x3c4c4df1	0.012469755
214	0x3a992e72	0.0011686815
215	0xbcd434bc	-0.025904052
216	0x3b87113b	0.004121927
217	0xba93811a	-0.0011253685
218	0xbd56380b	-0.05229954
219	0x3c7ed251	0.015553073
220	0xbd47dccc	-0.048794553
221	0x3d01a5ee	0.031652384
222	0x3c675bba	0.01412099
223	0x3c85b939	0.016323673
224	0x3be757dd	0.0070600347
225	0xbd6269a6	-0.055276535
226	0xbd4030fb	-0.04692171
227	0x3d384c14	0.04499443
228	0xbc847e23	-0.016173428
229	0xbd2b9759	-0.041892383
230	0x3ba94eaf	0.0051668505
231	0xbd211942	-0.03933073
232	0x3d4de5b7	0.0502679
233	0x3c0cfef6	0.008605709
234	0x3d5e4f6f	0.054274973
235	0x3d5e05df	0.054204818
236	0x3bef5b51	0.007304587
237	0xbd0de8cc	-0.03464584
238	0xbcf3f225	-0.02977855
239	0x3d201741	0.039084677
240	0x3c30933c	0.010777291
241	0x3cd57831	0.026058288
242	0xbb5ba721	-0.0033516365
243	0xbd2e6dfb	-0.042585354
244	0xbc7142fa	-0.014725441
245	0x3cd5580a	0.026042957
246	0xbd37dd38	-0.044888705
247	0x3bd294f2	0.006426447
248	0xbd5df2e3	-0.054186713
249	0x3d25d855	0.040489513
250	0xbcbc65fa	-0.022997845
251	0x3ce93296	0.028466504
252	0xbb9ca3c2	-0.0047802636
253	0xbca2a520	-0.019854128
254	0x3d2689e2	0.04065884
255	0x3d2628d0	0.040566266

bias f4 [64]
0	0xbd6cb08f	-0.057785567
1	0xbd251a9b	-0.040308576
2	0x3cb7125c	0.022347622
3	0xbd4e9bb8	-0.050441474
4	0x3bd25fa8	0.0064200945
5	0xbce92782	-0.028461222
6	0xbcd45a5e	-0.025921997
7	0x3d1dcd35	0.03852578
8	0xbd7f3a40	-0.06231141
9	0x3c68de3c	0.014213141
10	0xbc3f49c4	-0.011675302
11	0xbc98408f	-0.018585471
12	0x3c794e2f	0.015216394
13	0xbcb1d744	-0.021709092
14	0x3d1e6293	0.038668226
15	0xbd77cc51	-0.060497586
16	0xbd8e6dce	-0.06954537
17	0x3d1ad864	0.037804022
18	0x3bcf5c00	0.006328106
19	0xbc99e1dd	-0.018784458
20	0xbdd238bf	-0.1026473
21	0xbcf03a59	-0.029324697
22	0xbd40bf21	-0.047057275
23	0x3cc04730	0.023471445
24	0xbd903a4c	-0.07042369
25	0xbd6f51e4	-0.058427706
26	0x3c81ad80	0.015829802
27	0x3cc8bbad	0.024503553
28	0xbcfe3b83	-0.031034237
29	0x3c2fdfba	0.010734493
30	0xbd5f7e6c	-0.054563925
31	0x3cd1e49d	0.025621707
32	0xbd5ee94a	-0.0544217
33	0xbd6ea56d	-0.05826323
34	0xbc9d76c6	-0.019221675
35	0x3bba30cc	0.0056820866
36	0x3d19dfaf	0.037566837
37	0x3cd2f75a	0.025752712
38	0xbd9611f4	-0.07327643
39	0xbd12260c	-0.035680816
40	0xbc762f22	-0.015025886
41	0xbd95dff1	-0.07318104
42	0xbbc9ef2f	-0.006162546
43	0xbd0d034b	-0.03442697
44	0xbd0ea40b	-0.034824412
45	0xbd1053c6	-0.035236143
46	0xbcda55d2	-0.02665225
47	0xbd5f5f1a	-0.054534055
48	0x3d2b4f1d	0.041823495
49	0xbc216612	-0.009850996
50	0x3ccdcaf8	0.025121197
51	0x3c4feb41	0.012690366
52	0xbd3ff9b0	-0.04686898
53	0x3c97f7b3	0.01855073
54	0x3d1b4055	0.03790315
55	0xbc9b565c	-0.018962078
56	0xbba9322e	-0.0051634526
57	0x3cb697b6	0.022289138
58	0x3cadc909	0.021214025
59	0xbd541ce5	-0.05178537
60	0x3cb9e916	0.022694152
61	0xbd2a14c0	-0.041523695
62	0xbcf9ab28	-0.030477121
63	0xbd18e27c	-0.037325367

weight f4 [64]
0	0x3edb9c11	0.42892507
1	0x3f5f882d	0.8731716
2	0x3f4e2d9b	0.8053834
3	0x3f5f2a63	0.8717405
4	0x3f621109	0.88307244
5	0x3ed7512e	0.42054123
6	0x3f31cf82	0.69457257
7	0x3f4e561d	0.8060015
8	0x3f4cbe8d	0.7997826
9	0x3ed656d6	0.41863126
10	0x3f5a4054	0.85254407
11	0x3f5a2c22	0.8522359
12	0x3f66c4d4	0.90144086
13	0x3f68457e	0.90731037
14	0x3f440ce2	0.7658216
15	0x3f5c9e00	0.8617859
16	0x3f0f59e1	0.5599652
17	0x3ee5e8d5	0.449042
18	0x3ee48ba4	0.44637787
19	0x3f5b53a5	0.85674506
20	0x3f0bf344	0.5466807
21	0x3ee2f229	0.4432538
22	0x3f0919b1	0.53554827
23	0x3f63ce09	0.8898626
24	0x3f5922cb	0.84818715
25	0x3f5e6aed	0.86881906
26	0x3f5bbfde	0.8583964
27	0x3f51847b	0.81842774
28	0x3f0d07c6	0.55089986
29	0x3ee1ebbb	0.4412516
30	0x3f0b13b2	0.5432693
31	0x3f6118f5	0.87928706
32	0x3f527b69	0.8221956
33	0x3f656429	0.8960596
34	0x3f41ca28	0.7569909
35	0x3f0a2b02	0.53971875
36	0x3f62025c	0.8828485
37	0x3f0a889d	0.54114705
38	0x3f5104a1	0.8164769
39	0x3f5b2262	0.8559934
40	0x3ede5525	0.43424335
41	0x3f4db8bb	0.8036
42	0x3f47e30a	0.7808081
43	0x3f474b6f	0.7784948
44	0x3f5d589f	0.8646335
45	0x3f661494	0.8987515
46	0x3f5a1750	0.8519182
47	0x3edbb007	0.42907736
48	0x3f54171b	0.82847756
49	0x3ef5725b	0.4793881
50	0x3f5f7144	0.87282205
51	0x3f578b97	0.8419737
52	0x3f69250a	0.9107214
53	0x3ee23c00	0.441864
54	0x3ee25cf3	0.4421154
55	0x3f15ba2c	0.584872
56	0x3f70034e	0.9375504
57	0x3f544956	0.829244
58	0x3f31d16b	0.6946017
59	0x3f522ea0	0.82102394
60	0x3f274f90	0.6535578
61	0x3f57f1df	0.8435344
62	0x3f6d5da3	0.92721003
63	0x3f61291d	0.8795336

bias f4 [64]
0	0xbcff8ee1	-0.03119606
1	0xbd5c4b33	-0.053782653
2	0xbcb0dc9f	-0.021589575
3	0xbca562dc	-0.020188741
4	0xbc7738b2	-0.015089201
5	0x3b116983	0.0022188134
6	0xba1927c5	-0.0005842413
7	0xbb94cf3d	-0.0045413063
8	0xbca07645	-0.019587645
9	0xbcdea1dc	-0.02717679
10	0xbd3abdc0	-0.045591116
11	0xbdaad3f2	-0.083412066
12	0xbd6b2317	-0.05740651
13	0xbd231669	-0.039816294
14	0xbccca3d0	-0.024980456
15	0xbce61c21	-0.028089585
16	0xbdd1acb6	-0.1023802
17	0xbc139c4a	-0.00900943
18	0xbca485f1	-0.0200834
19	0xbd51a541	-0.05118299
20	0xbde9d8cf	-0.11418306
21	0xbc316fb4	-0.010829855
22	0xbe3d2aff	-0.18473433
23	0xbd708534	-0.058720782
24	0xbd0c2282	-0.034212597
25	0xbd2dee04	-0.042463318
26	0xbd52a71f	-0.05142891
27	0xbcff6af7	-0.031178934
28	0xbcc83420	-0.024438918
29	0xbd21969f	-0.039450284
30	0xbdbb4241	-0.09143496
31	0xbd437951	-0.04772312
32	0xbd1c3436	-0.03813573
33	0xbceba5ca	-0.028765578
34	0xbba84827	-0.0051355544
35	0xbc53288c	-0.012888085
36	0xbc278ddb	-0.010226692
37	0xbd9b55e2	-0.0758474
38	0xbca6bf8e	-0.020355012
39	0xbd8ea6dc	-0.0696542
40	0x3c97b7c7	0.018520249
41	0xbd67b98f	-0.056573447
42	0xbd4da0ca	-0.05020217
43	0xbb96ff57	-0.0046080756
44	0xbd27ceac	-0.040968582
45	0xbd9c4da0	-0.07631993
46	0xbd31cd01	-0.043408398
47	0x3b25f447	0.0025322603
48	0xbd3b344a	-0.045704164
49	0xbba4b3eb	-0.0050263307
50	0x3b561aea	0.003266985
51	0xbd9af4bc	-0.07566211
52	0xbd5a91ac	-0.05336158
53	0x3d0c56b6	0.03426238
54	0x3ba13cff	0.0049206014
55	0xbdf460bd	-0.11932514
56	0xbd4e2693	-0.050329756
57	0x3cf7fa28	0.030270651
58	0xbd21778d	-0.039420653
59	0xbd6a970f	-0.057272967
60	0xbd8c36c6	-0.06846385
61	0xbd2ac515	-0.04169186
62	0xbda6c3cc	-0.08142814
63	0xbd833ae7	-0.06407719

running_mean f4 [64]
0	0x3e47d24f	0.1951382
1	0x3e6e4215	0.23267396
2	0x3e1f3ae7	0.15549813
3	0x3e0adfc2	0.1356192
4	0x3e97f587	0.2967951
5	0x3f6b70ca	0.9196898
6	0x3f5072f0	0.8142538
7	0x3e27a66b	0.16372077
8	0x3de30b2d	0.11086116
9	0x3f976087	1.1826333
10	0x3e0d4234	0.13794786
11	0x3e8cf887	0.2753336
12	0x3dd09a55	0.101856865
13	0x3e483d33	0.19554596
14	0x3e55b5d6	0.20870146
15	0x3e8a937e	0.27065653
16	0x3d2dc347	0.04242256
17	0x3eb4421a	0.3520668
18	0x3ed8e31b	0.42360768
19	0x3e437b57	0.19090019
20	0x3d9e735c	0.07736847
21	0x3f2bd052	0.67114747
22	0x3e47a337	0.19495855
23	0x3e05bad2	0.13059548
24	0x3eb038a9	0.34418228
25	0x3dcf0d1a	0.10109921
26	0x3eb3af43	0.35094652
27	0x3eb6b54b	0.3568519
28	0x3dfeaf32	0.124357596
29	0x3fa16f31	1.2612058
30	0x3d58be03	0.052915584
31	0x3e5d6fc2	0.21624663
32	0x3e8e6b3a	0.27816182
33	0x3db2a05a	0.08721991
34	0x3e33f88b	0.1757528
35	0x3e7a79d0	0.2446053
36	0x3ea30ef1	0.31847337
37	0x3e330941	0.17483999
38	0x3efcac59	0.4935024
39	0x3efefd71	0.49802735
40	0x3f87ba86	1.0603797
41	0x3e38bd70	0.18041015
42	0x3e8a3de5	0.27000347
43	0x3e2549fc	0.16141504
44	0x3e323f24	0.17406899
45	0x3e17ea49	0.14835466
46	0x3e692618	0.22768438
47	0x3f2c7e7d	0.67380506
48	0x3f0cd79b	0.5501649
49	0x3ef845c3	0.48490724
50	0x3e1990ce	0.14996645
51	0x3ee11046	0.43957728
52	0x3e05a1dd	0.13050027
53	0x3e481383	0.19538693
54	0x3f7e5e1d	0.99362355
55	0x3e26ad42	0.1627703
56	0x3e16de8f	0.14733337
57	0x3d4c2938	0.049843997
58	0x3eae6b4a	0.3406623
59	0x3e418eaa	0.18902078
60	0x3e308fd6	0.17242369
61	0x3ead6669	0.33867195
62	0x3de5df2a	0.11224206
63	0x3e223ff2	0.15844706

running_var f4 [64]
0	0x3e576167	0.2103325
1	0x3f632f6a	0.88744223
2	0x3f327573	0.69710463
3	0x3ed3315e	0.41248602
4	0x3f825d85	1.018479
5	0x40140692	2.312901
6	0x4033dbec	2.810298
7	0x3eef370f	0.46721694
8	0x3ec8b981	0.39204028
9	0x4053043c	3.2971334
10	0x3e83d5fc	0.25749195
11	0x3f12a6f9	0.5728603
12	0x3de31b83	0.11089232
13	0x3f0f7ee6	0.56053007
14	0x3e8cdbbb	0.2751139
15	0x3f365bd5	0.71233875
16	0x3cd919b9	0.026501523
17	0x3f15e3f3	0.5855095
18	0x3eb3f386	0.3514673
19	0x3f0f9f60	0.5610256
20	0x3d2b07a9	0.041755352
21	0x3f100667	0.5625977
22	0x3dec2b8f	0.11531746
23	0x3eaf3929	0.34223297
24	0x3fca05fd	1.5783077
25	0x3e3fcbad	0.1873004
26	0x3f9b3cd8	1.2127943
27	0x3f4502f9	0.7695766
28	0x3e079c96	0.13243327
29	0x40517df5	3.2733128
30	0x3d0c15fd	0.034200657
31	0x3ef38bc9	0.47567585
32	0x3f6f9413	0.9358532
33	0x3dfc7de6	0.12328701
34	0x3f3bb3bf	0.73321146
35	0x3f3d50d7	0.73951477
36	0x3f9e2e7b	1.2357935
37	0x3e372ab0	0.17887378
38	0x3f9fb5c0	1.2477341
39	0x3f941261	1.1568109
40	0x4013df47	2.3105028
41	0x3f704965	0.9386199
42	0x3f3707c4	0.71496224
43	0x3f4295b9	0.7600971
44	0x3ec9e421	0.3943186
45	0x3ea2256f	0.31669185
46	0x3ed1654a	0.4089759
47	0x3f939589	1.153001
48	0x3ffb356a	1.9625676
49	0x3f1412b8	0.5784106
50	0x3eb4b674	0.3529545
51	0x3f848f9c	1.0356326
52	0x3ea9f555	0.33194986
53	0x3e5646fd	0.20925517
54	0x401282e3	2.2892387
55	0x3e116069	0.14196934
56	0x3e918806	0.2842409
57	0x3dc82dd9	0.0977437
58	0x3f9a05a8	1.2032976
59	0x3f55b349	0.8347669
60	0x3e5d67be	0.21621606
61	0x3fb2a6cc	1.3957152
62	0x3e5bc1eb	0.21460693
63	0x3e8c618b	0.2741817

weight f4 [8, 20736]
0	0x3a8903ec	0.0010453439
1	0x3cd7d9a1	0.02634889
2	0x3c331f9a	0.010932827
3	0xbc957b74	-0.018247344
4	0x3c0acb7d	0.008471367
5	0xbc4d0cc9	-0.012515255
6	0xbc443fc8	-0.011978097
7	0xbc9c16d1	-0.019053848
8	0xbd0b6d66	-0.034039877
9	0xbc6f645b	-0.014611329
10	0x3b535180	0.0032244623
11	0xbd048541	-0.032353643
12	0x3b172e14	0.0023068236
13	0xbc43d108	-0.011951692
14	0xbc85f089	-0.016350048
15	0xbb872b2d	-0.00412502
16	0xbca2451f	-0.01980835
17	0xbcdd0c7f	-0.026983498
18	0xbb8e8aae	-0.004350028
19	0xbc940a66	-0.018071365
20	0xbc263603	-0.010144713
21	0x3b1e5f8d	0.002416584
22	0x3c8c07fd	0.017093653
23	0x3c138e00	0.009006023
24	0xbcd20e24	-0.025641508
25	0xbcceea50	-0.025258213
26	0x3b888f94	0.0041675065
27	0x3c9449de	0.018101629
28	0x3b13d7ac	0.002255897
29	0xbc98387b	-0.01858162
30	0xbb9d969f	-0.004809215
31	0xbbf528d1	-0.0074816723
32	0xbd0ba137	-0.034089293
33	0xbc9ff715	-0.019526998
34	0xbb9eff94	-0.0048522446
35	0xbab53474	-0.0013824836
36	0x3c6568ea	0.014002064
37	0xbbc1e41f	-0.0059170867
38	0x3b57e8fb	0.0032945264
39	0xbc3576e1	-0.011075706
40	0xb89acbe4	-7.38127e-05
41	0xbcda6b73	-0.026662564
42	0x3c0e391f	0.008680611
43	0x3c274bec	0.010210972
44	0xbc477771	-0.012174473
45	0xbc82b13a	-0.015953649
46	0xbc2c43bf	-0.010514199
47	0x3c0da347	0.008644885
48	0x3ca94358	0.020661995
49	0xbbb7e1d1	-0.005611636
50	0xba3003ff	-0.00067144627
51	0xbca9492b	-0.020664772
52	0xbbe2713d	-0.0069104717
53	0x3c80094f	0.015629439
54	0xbb714565	-0.0036815044
55	0xbc883e14	-0.016631164
56	0x3cc3263d	0.023821944
57	0x3a85c275	0.0010205047
58	0xbc8b92cd	-0.017037774
59	0x3d266a4f	0.040628728
60	0x3cb2bd35	0.021818737
61	0xbc93031b	-0.017945817
62	0xbc3f0c7f	-0.011660694
63	0x3cb6e4ba	0.022325862
64	0xbceaaeb8	-0.028647766
65	0x3c1227e6	0.008920645
66	0x3cbed169	0.023293214
67	0x3c9ec604	0.01938153
68	0x3c378775	0.011201729
69	0x3c994b78	0.018712744
70	0xbcd3f34c	-0.025872849
71	0xbc47fc1c	-0.012206104
72	0xbc8126b3	-0.015765524
73	0xbbec2018	-0.0072059743
74	0x3c9d160d	0.019175554
75	0xbc4adc4a	-0.012381623
76	0xbc937856	-0.018001717
77	0x3af22452	0.0018473959
78	0x3c597e54	0.013274748
79	0xbbbe89bf	-0.0058147605
80	0xbcb4df63	-0.022079175
81	0x3baa4b2f	0.005196951
82	0xbc1b34cd	-0.009473038
83	0xbd088950	-0.033334076
84	0xbb83180c	-0.0040006693
85	0xbca3d16b	-0.01999732
86	0xbb33d5ce	-0.002744067
87	0xbc271ce0	-0.010199755
88	0xbc7d28f6	-0.01545166
89	0xba7e9043	-0.0009710828
90	0xbc225eca	-0.009910295
91	0xbaed918e	-0.0018125044
92	0xbc78e12d	-0.015190405
93	0x3a3659f6	0.0006956154
94	0xbc167da5	-0.009185229
95	0xbc6b529c	-0.014362957
96	0xbcbc220d	-0.022965455
97	0xbcc97882	-0.024593595
98	0xbc86a1d9	-0.016434597
99	0x3c97b3e3	0.018518394
100	0xbc0511ee	-0.008121951
101	0xbcb32fce	-0.021873381
102	0x3bd91489	0.0066247624
103	0x3b4f3599	0.003161764
104	0x3cd468df	0.025928913
105	0xbd366f35	-0.04453965
106	0x3c802e01	0.015646936
107	0xbc1ba5d6	-0.009499988
108	0xba66c2ca	-0.00088028295
109	0xbbefa794	-0.007313678
110	0xbbcafb94	-0.006194541
111	0xbc2010a3	-0.0097695915
112	0x3adb879b	0.0016748788
113	0x3c056b10	0.0081432015
114	0xbca20f21	-0.019782605
115	0x3bb42fc2	0.0054988572
116	0xbc8ea91e	-0.017414626
117	0x3c3afb84	0.011412505
118	0xbcdec25e	-0.02719229
119	0x3bb4e1c9	0.0055200798
120	0x3bd33899	0.006445956
121	0xbb3a14f6	-0.0028393841
122	0xbc20db74	-0.009817947
123	0x3c2a6c81	0.010401846
124	0x3c2b4355	0.010453065
125	0x3cc39273	0.023873543
126	0xbb3220b0	-0.0027180128
127	0xbc676d6e	-0.014125211
128	0xbcd0546d	-0.025430882
129	0xbceb576b	-0.028728208
130	0x3c1eb949	0.00968773
131	0xbcb3ef07	-0.021964563
132	0xbc609f6b	-0.013709883
133	0x3c640fa0	0.013919741
134	0xbcd81e99	-0.026381778
135	0xbb2b7674	-0.0026163133
136	0x3cdc2b1b	0.026876023
137	0xbc1d9a4b	-0.009619306
138	0xbab8de5b	-0.0014104353
139	0xbb028bf1	-0.0019919837
140	0xbbfcea22	-0.0077183405
141	0x3c953c15	0.018217126
142	0xba90533b	-0.0011011133
143	0xbcbae428	-0.022813872
144	0x3cba325e	0.022729095
145	0x39ff4c70	0.0004869434
146	0xbcbf1129	-0.023323612
147	0xbc9de1e9	-0.019272761
148	0xbc980557	-0.018557234
149	0xbcaa54f3	-0.02079246
150	0xbd19386e	-0.03740733
151	0x3d1e4558	0.03864035
152	0xbc3d7ed3	-0.011565882
153	0xbc54e687	-0.012994415
154	0xbae0966f	-0.0017134676
155	0x3c544fd9	0.01295849
156	0xbb883930	-0.004157208
157	0xbc3a6b05	-0.0113780545
158	0xbccbb332	-0.02486572
159	0xbd2205b1	-0.03955621
160	0xbcc6ae7d	-0.024253124
161	0xba7d3ec1	-0.0009660535
162	0xba6dd1bb	-0.0009072085
163	0xbbdff6b7	-0.0068348306
164	0xbc145bce	-0.009055091
165	0x3ceb8f5b	0.02875488
166	0x3ce64ef7	0.028113825
167	0xbc48f0a1	-0.012264402
168	0xbc63fec6	-0.013915723
169	0x3c35b5f8	0.011090748
170	0xbc9f8b30	-0.01947555
171	0x3ba54c47	0.0050444934
172	0x3bd5f795	0.006529758
173	0xbbe0dcc5	-0.0068622553
174	0xbcb2df6f	-0.021835057
175	0x3c6fd16f	0.014637335
176	0x3cd7dcae	0.026350345
177	0xbc0c7c3e	-0.0085745435
178	0xbb7c3852	-0.0038485718
179	0xbbd30cc3	-0.0064407303
180	0xbc2c9985	-0.010534649
181	0xbce88877	-0.028385384
182	0xbc19aaba	-0.009379083
183	0xbbd148d2	-0.0063868547
184	0xbc6f6553	-0.01461156
185	0xbc467391	-0.012112514
186	0xba460430	-0.00075537246
187	0x3bb26e2e	0.0054452633
188	0xbc66110f	-0.014042153
189	0xbb979104	-0.0046254415
190	0x3c872532	0.016497228
191	0x3ae9817e	0.0017815081
192	0xbca0c38e	-0.019624498
193	0xbbb823d6	-0.0056195064
194	0x3cfc2c92	0.030782972
195	0x3b78359a	0.0037873746
196	0x3ba42e02	0.0050103674
197	0x3d45bbbb	0.048274737
198	0x3cb4dc32	0.022077654
199	0x3c807adb	0.015683582
200	0x3c0f3a84	0.008741979
201	0xbc1c5fcb	-0.009544323
202	0x3c5f1e4d	0.013618064
203	0x3c55df90	0.01305379
204	0x3c4a124a	0.012333462
205	0xbb80e057	-0.0039329934
206	0xbc3fb4cd	-0.011700821
207	0x3ca507ac	0.02014526
208	0xbc0b13b3	-0.008488583
209	0xbca60e1b	-0.020270398
210	0x3c254b1a	0.010088706
211	0x3d07e9d6	0.033181988
212	0xba8590a4	-0.0010190201
213	0x3c9bf45a	0.019037414
214	0x3d60f5b6	0.05492183
215	0x3d11a8a9	0.035561237
216	0x3cdc9b02	0.026929382
217	0x3c724d4b	0.014788936
218	0x3bf26a24	0.007397907
219	0xbb9fe681	-0.004879773
220	0x3b43f46c	0.0029900325
221	0x3c12f098	0.008968495
222	0x3b1a1f52	0.0023517204
223	0x3c0c570f	0.008565678
224	0x3c8b0d6e	0.016974177
225	0x3c144c14	0.009051342
226	0xbd0367b3	-0.032081317
227	0x3c739e52	0.0148692895
228	0x3bd96bbb	0.006635157
229	0xbc4b03a9	-0.012391009
230	0xbbd8cbaf	-0.006616078
231	0x3cd4a34d	0.025956774
232	0x3cbefcfa	0.023313988
233	0x3c6fea4d	0.014643264
234	0x3c2efada	0.010679925
235	0xbc6ece35	-0.014575531
236	0xbcbce271	-0.023057194
237	0x3c8c8d59	0.017157244
238	0xbb844248	-0.0040362217
239	0x3b2ddb83	0.0026528544
240	0x3ca8d4d8	0.020609304
241	0x3c9fcd56	0.019507091
242	0xbc91b3da	-0.017785955
243	0x3b7c865f	0.003853224
244	0xbbd152ae	-0.00638803
245	0xbc2f77de	-0.010709731
246	0xbc0e8104	-0.008697752
247	0xbb78ac97	-0.0037944668
248	0x3cce4b7b	0.025182476
249	0x3cba36dc	0.022731237
250	0xbc8ce349	-0.017198222
251	0xbc00a4ef	-0.007851823
252	0xbd05ab47	-0.032634046
253	0x3cb6f7e6	0.022335004
254	0xbc3c52ac	-0.01149432
255	0x3d07d582	0.0331626

bias f4 [8]
0	0x3c3a8897	0.011385105
1	0xbd0176c5	-0.031607408
2	0x3cf1c32b	0.029512009
3	0xbcc1dcf4	-0.023664929
4	0x3b19bac4	0.0023457268
5	0x3d20f0f9	0.03929231
6	0xbc384791	-0.0112475315
7	0xbc742f2d	-0.014903826
